model.pth (torch_old, 325071 bytes, 7 tensors)

conv1.0.weight f4 [50, 50, 8]
00000000: 610d 223d 4a08 30bd 1b84 41bd e1c6 0d3d
00000010: 107d b83b 0a55 9dbc 1adb b23c 60c9 93ba
00000020: 6c85 483c 42be 953c 2ddb 2b3d a8d3 a13b
00000030: e0c0 743b 4297 0bbd 04bb 89bc 05dc 043d
00000040: 7a4b c3bc 9a18 e6bc bb97 11bd e0d9 503b
00000050: 8823 4cbd 8c80 2d3c 5a73 babc a7f6 eabc
00000060: 59dc 133d 3e50 ff3c 8d44 0fbd 0c62 0b3c
00000070: 2d42 34bd b795 4b3d fa75 acbc a691 cb3c
00000080: 0691 91bc 9a05 84bc 8038 033b 08ad 0abc
00000090: 8ad8 97bc 00eb b639 ba41 d33c 2304 ffbc
000000a0: 515e 0a3d 2048 94bc 7c27 523c f786 49bd
000000b0: 62a9 f63c 9bbe 3dbd 2f48 3e3d b11d 373d
000000c0: 11c9 123d 661e 8f3c 509e 3dbd de23 cf3c
000000d0: 86bb 28bd 164d d03c 0066 2f39 03f7 21bd
000000e0: 00f8 b03a 16b5 d03c e024 233b 60c4 84ba
000000f0: 2454 02bd 23b5 f9bc c4fb 533c 66b9 ed3c
00000100: 3500 2bbd 1e32 e53c d7b4 123d 6266 ca3c
00000110: 3091 2fbd 9261 913c 74cf 2ebc e22e eb3c
00000120: 58bf cb3b a11a 143d 70b9 ccbb b3ab 1f3d
00000130: 4d68 193d c0fd c7ba 2c61 1cbc bf50 43bd
00000140: 88f3 343c b683 fb3c bacb 37bd 58fd 343c
00000150: 70e5 c1bc f06a 94bc 00b0 383c 141b 2d3c
00000160: 80e2 c239 0fe3 4abd 40bd a5bc de1d fe3c
00000170: 2dad 183d ff6a 153d 4d50 243d ff6d 2c3d
00000180: 653a 4bbd 623d b83c 78e5 3e3c 48bd 71bc
00000190: fe2a 973c 1ce9 643c 2ff3 2b3d 923d d63c
000001a0: 5d20 1bbd c3c1 34bd 46b5 13bd 61fb 4a3d
000001b0: 6812 1abc a0ce 7ebc 7dc2 0e3d 405c 9bbc
000001c0: 9221 2ebd 309b 89bb 17b5 edbc b7fc 3b3d
000001d0: 5add e1bc 8711 243d 5065 893b 30ba 1dbb
000001e0: f3d9 babc 25b6 26bd cdaa 4c3d b8f4 57bc
000001f0: e18f 303d b01f 69bb 0078 ec3a 8082 f3b9
00000200: f24c 9f3c 6cec 56bc 6ec1 d23c c601 f23c
00000210: 197a 3c3d 40c7 51bc a83e 79bc 915a 393d
00000220: 8b2c 3fbd a7bb dabc e061 28bc a301 383d
00000230: 54f1 28bc edaf e7bc 8061 403c 5a17 cebc
00000240: ec74 3cbc 5a9d 02bd b252 d23c c0bb 3bbc
00000250: 215e 113d 2571 463d b06a cebb 105f d53b
00000260: 18b7 3fbd a273 16bd 5a1f 81bc 807c 293a
00000270: e3a8 34bd 8c6e 763c 1bb9 3b3d 6bd0 10bd
00000280: a870 0bbc ff4d 1e3d 219d 0d3d b786 3a3d
00000290: 68db 3dbc bae8 813c b387 b3bc cd83 b3bc
000002a0: c0ba f4ba 2692 cb3c 479a 383d 09ee 0b3d
000002b0: ed75 ffbc 0f51 1a3d 5613 8d3c 89af 303d
000002c0: ec6f 36bc 82d3 873c 96c8 993c ad4d d9bc
000002d0: 4295 e83c 6adc 93bc f86a 39bd 0aeb d6bc
000002e0: 7766 c1bc cdcf 45bd daea aabc dae7 d53c
000002f0: c0e4 103c 9a23 d5bc d8a1 abbb 4392 1f3d
00000300: 62b4 e13c ae58 cb3c d08d d0bc 1a13 ab3c
00000310: 88d6 02bd 8241 f33c 20aa 3fbd 50de 1d3b
00000320: 8cfe 2b3c 0016 39b9 40b4 973b efc9 333d
00000330: 00f2 5339 d6cd c43c 660e 953c 341d 5bbc
00000340: d79b bcbc 0039 54bc 338d 49bd b266 803c
00000350: 0533 143d 37e9 f1bc 30e1 343b 4afa bd3c
00000360: 14bd 73bc 40c0 e6ba 4dda 163d 40a0 aaba
00000370: e370 2abd 162e cd3c b706 bebc 4069 8b3b
00000380: db08 40bd cc86 273c 9a59 2cbd 70db 44bd
00000390: 3e32 bb3c a0c8 96ba 7253 863c 3c1d 5b3c
000003a0: 820a cc3c 7208 3ebd 47fd a3bc 409a c9ba
000003b0: 90da 15bd 8740 fabc 5223 b53c 19ad 033d
000003c0: 2821 fc3b f2e6 db3c 327e df3c a827 04bc
000003d0: 635e 2dbd cf72 40bd b7fe 4abd 9175 3e3d
000003e0: b2c5 b53c 80ba b23b 05a1 18bd 55d4 443d
000003f0: 9876 a53b c07e a9ba 587b 983b a19a 473d
0.03956354 -0.042976655 -0.047245126 0.034613494 0.005630143 -0.019205589 0.021832991 -0.0011275224
0.0122388415 0.018279199 0.04195707 0.0049385615 0.0037346408 -0.034079798 -0.016812809 0.03243639
-0.023839701 -0.028087903 -0.035545092 0.0031868145 -0.049838573 0.01058973 -0.022760082 -0.028682066
0.03609881 0.031166192 -0.034977484 0.008507263 -0.044008423 0.049703326 -0.02105235 0.024849724
-0.017769348 -0.016115952 0.002002269 -0.008464105 -0.018535871 0.00034888834 0.025788177 -0.031129902
0.033781353 -0.018100798 0.012826797 -0.049200978 0.030110065 -0.046324354 0.04645556 0.04470605
0.035836283 0.01747055 -0.046293557 0.025285657 -0.04119446 0.025427382 0.00016727298 -0.03954221
0.0013501644 0.025476974 0.0024893805 -0.0010129325 -0.031818524 -0.03048188 0.012938444 0.029019069
-0.041748244 0.027978 0.035816994 0.024707023 -0.04286307 0.01774672 -0.010669578 0.028708879
0.0062178783 0.036158208 -0.006247692 0.038982105 0.037452985 -0.0015258119 -0.009544652 -0.047684427
0.0110443905 0.030702453 -0.044872023 0.01104673 -0.023668975 -0.018117398 0.01127243 0.010565538
0.0003717132 -0.049532946 -0.020231843 0.031020101 0.03727453 0.036478993 0.040115643 0.042097088
-0.049616236 0.022490207 0.011651389 -0.014754601 0.018453117 0.013971593 0.041979965 0.026152406
-0.03787266 -0.044130098 -0.036061548 0.04955614 -0.009403802 -0.015552193 0.034853447 -0.018964887
-0.042512484 -0.004199408 -0.029017014 0.045895305 -0.027571369 0.040055778 0.0041929856 -0.0024067275
-0.022809004 -0.04070105 0.049967576 -0.013180904 0.043105964 -0.0035571866 0.0018041134 -0.00046445802
0.01944587 -0.013117891 0.025727 0.029541861 0.04601488 -0.012803853 -0.015212692 0.045252386
-0.04667334 -0.026700808 -0.0102772415 0.044923436 -0.010311443 -0.02828213 0.011741996 -0.02515762
-0.011502486 -0.031888343 0.025674198 -0.011458337 0.03549016 0.048447747 -0.0062993392 0.0065115765
-0.04680547 -0.03673137 -0.01576202 0.00064653903 -0.044106375 0.015041005 0.045830827 -0.035355013
-0.008510746 0.0386486 0.034573678 0.04553863 -0.011587955 0.015858043 -0.021915292 -0.021913433
-0.0018671378 0.024849962 0.045069005 0.034162555 -0.031184161 0.03767496 0.017221134 0.043136153
-0.011135083 0.016580347 0.018772405 -0.026526297 0.028391484 -0.018049438 -0.04526803 -0.026235122
-0.02360843 -0.048293877 -0.02086394 0.026111532 0.008843601 -0.026017953 -0.005237799 0.038957845
0.027551834 0.02482256 -0.025458246 0.020883132 -0.031942874 0.029694322 -0.046793103 0.0024088807
0.0104977 -0.0001765117 0.004629642 0.04389375 0.0002021268 0.024023931 0.018195342 -0.013373662
-0.023023529 -0.012953043 -0.049206924 0.015673969 0.03618147 -0.02953015 0.0027600043 0.023190636
-0.014876623 -0.0017604902 0.03682928 -0.0013017729 -0.041611563 0.02504639 -0.023196561 0.00425449
-0.046883445 0.010225009 -0.04207764 -0.048060834 0.022851106 -0.0011503883 0.016397212 0.013373669
0.024907354 -0.046394773 -0.020018233 -0.0015381053 -0.03658539 -0.030548347 0.022111569 0.0321475
0.007694382 0.026843522 0.027281854 -0.008066095 -0.042326342 -0.04698449 -0.04955932 0.04649884
0.022188995 0.0054543614 -0.037262935 0.048054058 0.005049538 -0.0012931451 0.0046533756 0.04873145

conv1.0.bias f4 [50]
00000000: c4ac 84bc a2b9 28bd 42da 2fbd 80c6 2bbb
00000010: 531c 013d c0c5 12bd ac50 71bc 387a 36bc
00000020: 5ad5 b43c c869 74bc 4635 b53c 1802 f5bb
00000030: ff36 33bd d449 81bc cc73 50bc 923e fb3c
00000040: 2f24 34bd 43ee 9ebc 2097 3e3c 08d6 043c
00000050: 0024 533b 61fd 0d3d a0a7 a93a e359 183d
00000060: f3b2 1dbd 0048 d239 f086 9cbc f04a 84bb
00000070: 0074 9d38 e64e 92bc 4415 08bd 47ad 9dbc
00000080: 16a8 85bc 181d 1dbc 9ffa 023d b118 0d3d
00000090: c038 123c 8379 433d 563d f93c f053 c7bc
000000a0: 6d0d fcbc 2929 233d b2d5 f23c e063 303c
000000b0: 00de 3eb9 6e41 9f3c 60be 37bc 009c 83ba
000000c0: e029 01bd 2041 0cbd
-0.016195662 -0.04119266 -0.042932756 -0.0026210845 0.031521153 -0.03583312 -0.014728706 -0.011137538
0.02207439 -0.014917798 0.02212013 -0.0074770562 -0.04375362 -0.015782274 -0.012722921 0.030669484
-0.04397982 -0.019400721 0.011632711 0.00810767 0.0032217503 0.03466547 0.0012943633 0.037195098
-0.038500737 0.00040107965 -0.019107312 -0.0040372536 7.50795e-05 -0.017859887 -0.033223405 -0.019247664
-0.016315501 -0.009589456 0.031977292 0.034447376 0.008924663 0.047723304 0.030424755 -0.024332017
-0.03076812 0.039834175 0.029642913 0.010766 -0.00018202513 0.019440379 -0.0112148225 -0.0010040998
-0.031534076 -0.034241796

lstm.weight_ih_l0 f4 [400, 50]
00000000: 18eb 09be 8aa9 79bd ef89 9f3d 371c cc3c
00000010: ab60 9a3d 3515 04be a82a 4c3e 0db9 a33e
00000020: 5e7f 343d 6e8c 073f e14a 623e 527a 1abd
00000030: 076d 053b 2ad5 20be be2a 933d 0481 9bbe
00000040: 82b8 393d da66 1d3e 2b8d aabe 3c0e c83d
00000050: ebab b1be 16f9 62be 40e5 dc3d 4a19 47be
00000060: 8fe8 173e 390f 553e 4681 aabd ba3d 4abb
00000070: 9a13 973e 7de8 243e 2c66 cfbd 75e3 fd3d
00000080: e9e6 c23e 04d0 703e 2613 363e 4769 0c3e
00000090: b282 e3bd 94b8 1c3f 3de6 c43e 5ba3 be3d
000000a0: 477b 99bd 267a 07be dafc fcbd e255 66bd
000000b0: 4386 c33d a578 e2be 6d6f 963e d7fd 5f3e
000000c0: d1f9 003f 1bff 6f3e fcfb 183e 0f71 983a
000000d0: 3bf7 aa3d c0bc ce3d c70c a13e 19ae a03e
000000e0: 8d40 903e 1288 bcbd 1624 bbbe fee7 f63d
000000f0: cccb 54bd 8e56 933c 0231 b3bd 3cc8 193e
00000100: 6d41 1c3e eba1 91be fe98 8ebe 5bab 133f
00000110: a9d5 07bd 2930 143f 73e1 99be b1e6 16bb
00000120: 1523 1cbe 6ff2 493d c978 77bd dcd8 ca3c
00000130: 6886 ce3c ff25 77be 9ebe a3ba c395 c83d
00000140: 4249 03be 4497 83be 42cb 82bd 3d99 693e
00000150: c9ca d63d f4f2 be3e 0328 0b3d bcf4 863e
00000160: 4daf b5be 12cc 89be fe5c c03c 706c 113e
00000170: 7f30 4dbd 80f0 35be d100 973d ff74 ecbd
00000180: ed8f 67bc acc2 16be 57c2 a5be 676e ea3c
00000190: 8cd7 19be eaad 34be 316f e83d 1e20 febc
000001a0: 9e33 81be ad31 f0bc 34a3 2fbd 7b81 443e
000001b0: 907c ebbb 994e edbe 626a 5fbd b185 df3d
000001c0: b438 d83d 2626 853c f650 9fbd 65a2 153e
000001d0: ea29 2b3d 8ddc 6e3e 041f 873d e869 ef3a
000001e0: 224b 7bbd 33c8 e8bc 985e b0bd 6f81 bd3d
000001f0: 2445 80bd b829 97bb 8553 3d3e c6dd 253e
00000200: 4c9d c8bc 4d28 983c ead0 0cbc c890 f0bc
00000210: 1218 07bd 8ae5 6cbd e871 92be 4137 553d
00000220: 954a 03be d4e9 10bd 1606 4b3c 8fdc 413e
00000230: c4be d8bb 57eb 273d de5d c23d 29f2 7cbd
00000240: 10a3 f03d 7c19 ffbd 7927 35be 84a7 12be
00000250: 2b56 4abe 5528 68bd 555f a2bd e0bf 8abe
00000260: e070 a53d b309 3bba 9585 9bbc 3ec0 2bbe
00000270: 91ac 0cbc 770a d23d ebce 1b3d 92f2 23be
00000280: 0c23 d3bd 298a 093e 8f93 4c3d 212d 78be
00000290: a45d 803e 5981 133f 1db5 9dbe cbdc 51be
000002a0: 7e63 f43c 2d07 523e 6c33 a33e 7be6 54be
000002b0: 15e6 1bbe 11bb 593e 7c5f 09bd a477 933c
000002c0: 97db 333e a14d 15be f554 853e 06e8 b9bd
000002d0: 2c4d 8d3d 51f2 f73a 8002 97be 4542 823e
000002e0: 0170 873e 1cb6 34be 9bf0 4b3e 0776 9bbe
000002f0: 4412 803e 829d a7bd d619 bfbe e511 f2bd
00000300: 2f21 b23e b246 6a3e 5de3 d1be f4b4 2d3e
00000310: ee00 ee3e fdf2 b53d 92bc 993e c568 0c3e
00000320: 76ed a8bd dee3 353d 9267 fcbc 5795 c5bd
00000330: 074e 9cbb 18f5 343d 11aa 4c3d 75ec 5bbe
00000340: fcce 12be 91b1 3b3e 0ec4 68be db11 0fbe
00000350: c37f a83d 9bf8 acbd d623 aa3e e2b3 7abe
00000360: 3abf 093d 22f5 053e 7391 a63d 135b 4d3e
00000370: d76b ccbd a195 15be 5616 643e 4aa9 babe
00000380: 1d80 5cbe 038d 643c fd42 a7bd 4138 a73e
00000390: bac5 173d 340f 7fbc 6e83 86bd 2096 04be
000003a0: 0970 90be 09d6 533e 5c72 36be 2275 32be
000003b0: 8242 0a3e df31 9cbe c594 0cbf 7e32 b83d
000003c0: 3062 a03d 503e d43d 8090 e8bd 9782 59be
000003d0: c0bc 6abe cbb6 3fbf b0a7 aabe 572b 813d
000003e0: a250 9d3d 0b66 cf3d d834 adbd af38 aebd
000003f0: 37cc c3bd e57a 603a fbb8 873d 574f dabd
-0.13468587 -0.0609527 0.077899806 0.024915798 0.07537969 -0.12898715 0.19938147 0.3197712
0.04406678 0.52948654 0.22098877 -0.03771431 0.0020359175 -0.15706316 0.07185887 -0.3037187
0.045341976 0.15371266 -0.33310828 0.0976834 -0.34701476 -0.22165331 0.107859135 -0.19443241
0.14834808 0.20806588 -0.08325438 -0.0030859546 0.29507142 0.16104312 -0.101269096 0.123968996
0.38066795 0.23516852 0.17780742 0.13712035 -0.111089125 0.61219144 0.38456908 0.09308501
-0.074942164 -0.1323019 -0.12352915 -0.056234248 0.09547093 -0.4423267 0.29381886 0.21874176
0.5038119 0.23437159 0.14939874 0.0011630374 0.08347937 0.10094595 0.3145506 0.31382826
0.28174248 -0.09205641 -0.3655097 0.12055968 -0.05195217 0.017985608 -0.08749582 0.1501779
0.15259333 -0.28443846 -0.278511 0.5768334 -0.033162747 0.57885987 -0.30054817 -0.0023025686
-0.15247758 0.04930347 -0.060417924 0.02476161 0.025210574 -0.24135588 -0.0012492721 0.0979419
-0.12820914 -0.25701344 -0.063864246 0.22812362 0.10487897 0.37294734 0.033973705 0.26358593
-0.35485306 -0.26913506 0.023481842 0.14201522 -0.050095078 -0.17767525 0.073732026 -0.11545753
-0.014133436 -0.14722699 -0.32374832 0.028617097 -0.15023631 -0.17644468 0.11349333 -0.031021174
-0.25234693 -0.029320562 -0.042880252 0.19190018 -0.00718648 -0.46349028 -0.054544814 0.109141715
0.1055769 0.016253542 -0.07779114 0.1461273 0.04178802 0.23326321 0.06597713 0.0018265815
-0.06135095 -0.028415775 -0.08611792 0.09253203 -0.062631875 -0.0046131276 0.18488891 0.16197881
-0.024489067 0.018573904 -0.008594731 -0.029365912 -0.03298194 -0.057836093 -0.2860253 0.052054647
-0.1282142 -0.035379246 0.012391588 0.18931793 -0.006614538 0.040995922 0.0949056 -0.06175438
0.11749852 -0.12456033 -0.17690839 -0.14321715 -0.19759433 -0.05667909 -0.079283394 -0.27099514
0.0807817 -0.0007134929 -0.018984595 -0.16772553 -0.008586065 0.10255902 0.03803913 -0.16010502
-0.10309419 0.1343161 0.04994541 -0.24235965 0.25071442 0.57619244 -0.3080224 -0.20494382
0.029832598 0.2051055 0.3187517 -0.20791046 -0.15224488 0.21262766 -0.033538327 0.018001385
0.17564236 -0.14580394 0.2604138 -0.09077458 0.06899485 0.001891682 -0.29494095 0.25441185
0.2645264 -0.17647594 0.19916002 -0.30363485 0.25013936 -0.08184339 -0.373244 -0.11819819
0.34790942 0.2287853 -0.40993777 0.1696356 0.46485084 0.08884237 0.3002668 0.13711841
-0.08248417 0.044406764 -0.030811105 -0.09647625 -0.004770044 0.044179052 0.049966875 -0.2147692
-0.14336771 0.18329455 -0.22731039 -0.13971655 0.082274936 -0.08445855 0.33230466 -0.24482682
0.033629633 0.13081792 0.08133211 0.20054273 -0.09981506 -0.1460786 0.22274145 -0.36457282
-0.21533246 0.013949635 -0.08167074 0.32660106 0.0370538 -0.01556759 -0.06568037 -0.12947893
-0.28210476 0.20687117 -0.17817062 -0.17427495 0.13501933 -0.305068 -0.54914504 0.089940056
0.07831228 0.10363448 -0.11355686 -0.21241222 -0.22923565 -0.74888295 -0.3333106 0.063070945
0.07681395 0.10126885 -0.08457345 -0.08506905 -0.09560435 0.00085632346 0.06627079 -0.10659664

lstm.weight_hh_l0 f4 [400, 100]
00000000: 1f08 05bd 40fd f5bd 645a febd 0267 13bc
00000010: 00fd 9dbd 7d79 1c3c 2347 b43e bd55 f53d
00000020: 5397 393e 586c 8b3d 91fe 363d b9b8 af3d
00000030: 241a 6ebe bea6 93bd 1039 9abd 6d46 043e
00000040: 6040 ae3a 14f8 083e 2d0e 44bc 0d62 0f3e
00000050: 5c2c 42be a7a9 2dbe 74b7 74bd cfdb 29bd
00000060: f255 31be cad3 7bbe 67ee b83e ede7 ad3c
00000070: 93c9 813d 806b 6a3e 040e 10be 1ca3 003d
00000080: beec ea3c a7d2 913d 21ae 9cbe bf14 80bd
00000090: 29f3 80be 2b65 2a3e 079d 94bd 8d02 d63c
000000a0: 9bf1 083e 89b9 053e a8b8 df3d 5717 6b3d
000000b0: 6e03 48bd 55db 343d 3b53 2b3d 5672 fe3d
000000c0: 575b 163e 4286 ccbe f2b3 6d3d 264d 51be
000000d0: e4f9 54be 4c76 403e 5305 c7bd 6428 92bd
000000e0: 68b3 7b3e 690d ce3e 6f81 df3d b50b 87bd
000000f0: f851 093d 8e54 39be f7c7 ac3e 0c2c c2bd
00000100: f2d9 d13d 4dbf dabb b0fe 28bd ee0f 333c
00000110: 624c c2bd f9bf aabd 4b02 ad3d 42a6 413d
00000120: 62f4 9c3d 4379 67bc 1af7 1fbe 9f45 7fbe
00000130: 4686 5ebd 1634 00be 7323 ae3d a692 d1bd
00000140: 76b6 bb3c 9e94 753e 5ffa 2ab7 f200 c03d
00000150: e19f c03d 6126 21bd 58e8 1fbc f605 40be
00000160: 654e e23d 9302 c93d 7b1a 48bd ae76 ed3d
00000170: cc8d 69bd 7ed0 823e 7bcc c6bd bd3d eb3a
00000180: 1795 10be 50c2 42bb 13c7 8dbe 65cc 5d3e
00000190: de72 a53c 0bd0 eebc e855 4f3e 92f3 193e
000001a0: 5f98 babd 5fd3 aa3d 4091 573d 61bb 913c
000001b0: 668e 173d 22d3 d1bb 235c 3b3e 19e3 e13d
000001c0: 9ea3 42be 9e2c 4bbd e87b 673c 0869 f03c
000001d0: c9e3 f53d 56f9 86bc 12c0 8e3d 4951 f73c
000001e0: 9714 afbe 9658 f4bc 302d 1ebe 1352 813d
000001f0: 8618 0d3d a1d2 eabd 4d60 0cbe 1e84 5cbe
00000200: 5393 15be 3610 973c a952 793d 6796 11bd
00000210: 0748 353e 2620 d93c 59b7 23bc 2dd9 0e3e
00000220: ff5a 47be dfb1 93bc cf9f ffbd b14f 49bd
00000230: 1e44 253e 789b 763d 8c34 a6bd 25dd eabc
00000240: ae40 5bbe 5dd1 6ebe 1821 77bd fad8 83bd
00000250: a49c 9d3e 1720 603c 4b45 b93c 54c2 fa3d
00000260: 488e 893e 907c e83c 2f14 d8bd f594 b23e
00000270: 9d7e 7d3e a874 083d 3d1d 063e b1d8 733c
00000280: 9bfe ae3d e6c4 893d 4a28 8fbc 141f f03d
00000290: b8b5 28be 873c 653d 2382 833e d61a b7bd
000002a0: 9e84 473d 9b32 63be e505 993d 4208 bfbd
000002b0: 0004 08be 463f 893c db1e 76bc 1629 a6bd
000002c0: 73be 9d3b 753f aebd 80b0 58bd 9d3b 2fbd
000002d0: 494e 823e 21fd b83c 8b34 a3bd e753 cebd
000002e0: 032b a83c 47b1 46bd c690 adbd 767a 75bb
000002f0: 3b9c adbd 8294 2a3c 7598 c43d 6910 8dbd
00000300: 0ab7 e23d a66e 593d 7693 b13d d15b d4bd
00000310: f1b2 ba3d 84ae 473e dcb9 383e 74aa c93d
00000320: 5d0c b83d 04e4 dfbd 3090 913e e675 063e
00000330: 76bb abbd 3742 b13d ef65 303e 0dd5 0fbe
00000340: ed32 ad3c 2245 3dbe 15d8 bb3d edfa 44bd
00000350: 24a1 babd a8fd 20be d257 02be d68d ac3d
00000360: b68f 9dbe 3abe 8fbd 732a 273e a913 88bc
00000370: 0a60 d3bd c057 593d 46fd 21be 5302 2ebd
00000380: be4b 73bd 6638 61bd e1ff f63d 16e8 5f3d
00000390: 6ff7 35bd 745c fa3c ab11 0e3e 1a92 6bbd
000003a0: 89b6 833e 41ca 753c ae89 dbbd 8cc9 3bbe
000003b0: 5f0c 50bd af17 0e3e 7966 e03d 5eb2 21be
000003c0: c469 24be 4515 463e b989 17be edf2 a0bd
000003d0: e391 09be 97a5 b9bd 1e07 67bd 5bf1 183e
000003e0: 1739 bdbd c4a7 bb3d 58ad 933e d187 5c3e
000003f0: 2552 5bbe d230 a93c eebc a63c 23f5 063e
-0.032478448 -0.12011194 -0.124195844 -0.008996727 -0.077142715 0.009550449 0.35210523 0.11979244
0.18124132 0.06807774 0.044676367 0.08580155 -0.2325216 -0.07209538 -0.07530415 0.1291749
0.0013294332 0.13375884 -0.01196627 0.14002247 -0.18962234 -0.16959248 -0.059745267 -0.04146939
-0.17317942 -0.2459251 0.36119387 0.021228755 0.06337275 0.2289257 -0.14067847 0.031405553
0.02867734 0.07120257 -0.306016 -0.06253957 -0.25185516 0.16640155 -0.07256513 0.026124263
0.13373415 0.13059057 0.10923892 0.057395305 -0.048831396 0.044154484 0.04182742 0.124241516
0.14683281 -0.3994618 0.058032937 -0.20439586 -0.2079845 0.18795127 -0.097178124 -0.0713661
0.24580157 0.40244606 0.109133594 -0.0659403 0.033525437 -0.18098661 0.3374631 -0.094810575
0.10246648 -0.006675637 -0.041258514 0.010929091 -0.09487225 -0.08337397 0.08447703 0.047277696
0.076638 -0.014128032 -0.15621606 -0.24928902 -0.054327272 -0.12519869 0.08502855 -0.10233049
0.022914153 0.23982474 -1.0191084e-05 0.0937518 0.094054945 -0.03934324 -0.009759985 -0.18752274
0.11050109 0.09814944 -0.04885338 0.11594902 -0.057019994 0.25549692 -0.0970697 0.0017947477
-0.14119373 -0.002971787 -0.27690944 0.21660002 0.020196375 -0.029151937 0.20247614 0.15034321
-0.09111094 0.08341097 0.052628756 0.017789545 0.037001036 -0.006403343 0.18296866 0.110296436
-0.19007728 -0.049603097 0.014128663 0.029346958 0.12006337 -0.016476315 0.06970228 0.030190127
-0.34195396 -0.029827397 -0.15446925 0.063144825 0.034447215 -0.114659555 -0.13708611 -0.21534774
-0.14606981 0.018440347 0.060869846 -0.035543825 0.17703258 0.026504587 -0.009992444 0.13950033
-0.19468306 -0.018029151 -0.12481653 -0.049148265 0.16139266 0.06020686 -0.08115491 -0.028669903
-0.21411392 -0.23322053 -0.060334295 -0.06437869 0.3078357 0.013679526 0.02261605 0.122440964
0.26866364 0.028379709 -0.10550725 0.3487927 0.2475533 0.033314377 0.13097091 0.014883206
0.08544656 0.067270085 -0.017475266 0.11724678 -0.1647557 0.055965926 0.25685224 -0.089406654
0.048710458 -0.22187273 0.074718274 -0.09327747 -0.13282776 0.016753804 -0.015022005 -0.08113305
0.004813963 -0.08508197 -0.0529027 -0.04278146 0.25450352 0.022581639 -0.07969006 -0.10074597
0.020528322 -0.04850891 -0.08474879 -0.0037457026 -0.08477064 0.010411384 0.09599391 -0.068878956
0.11070068 0.05308404 0.08670704 -0.10369075 0.091161616 0.19500166 0.1803965 0.098469645
0.08986733 -0.109321624 0.2843032 0.13130912 -0.08385365 0.086552076 0.17226385 -0.14046116
0.021142447 -0.18483403 0.09172074 -0.048090864 -0.091127664 -0.15721762 -0.12728813 0.084254906
-0.30773705 -0.07018705 0.16324787 -0.016610937 -0.10321052 0.0530622 -0.15819272 -0.042482685
-0.059398405 -0.054985426 0.12060524 0.054664694 -0.044425424 0.030561663 0.13873927 -0.05751238
0.257252 0.015001834 -0.1071962 -0.18338603 -0.050793048 0.13876222 0.10957045 -0.15790698
-0.16055971 0.19344051 -0.14798631 -0.078588344 -0.13434558 -0.09064787 -0.05640327 0.1493582
-0.09239405 0.09162858 0.28843188 0.21536185 -0.21418054 0.020653162 0.02035376 0.1317945

lstm.bias_ih_l0 f4 [400]
00000000: bb3f 913d a62e 053e 2b54 86bd 8f37 e13d
00000010: 475a 563b dfb0 e43d 00bd 88bc b17b a23d
00000020: af0a 94be 073d a5bb 085a 363b c1f6 b23c
00000030: ec5c 23bd 168c b2bd 7591 fb3c 52a4 81bd
00000040: accd 213d 51f2 1d3d 821f 663c 7951 c1bd
00000050: d7af e2bd 2aa3 a6bd b855 fe3d a41f 5dbd
00000060: 5f27 a93d 4dfa 963c ac8e 1a3e 5364 333d
00000070: 20f2 993c cb82 93bd a24c 42be 2b4f e3bd
00000080: 0f20 a0be 702f a2bd e687 d13d d88a 993d
00000090: c34a 163e 9c9e d13d 0e60 9c3d b119 19ba
000000a0: adee 803d ccfc d4bc 4db1 93bd 583f 15be
000000b0: 4081 0ebd 8632 2a3d 13fd 49bd 5778 a2bc
000000c0: 089d 843d 8aaa 0abb 8422 c43d c817 a3bc
000000d0: b882 4cbc 1a00 8bbb d3b9 0dbd 9ac1 123e
000000e0: 619b 0e3e 04e2 95bc fb0e 313d 5fa5 dd3d
000000f0: 195d 863d 0dd7 623e 2e73 c53c f381 77be
00000100: d2b2 7e3e d41c 9c3d 36f2 8c3b 3b31 173d
00000110: 40cc 463d 54b8 b93d 4d9f 693d 975f c13c
00000120: 0714 03be 51d7 d23d 7501 30bd 8ae1 f03d
00000130: e9a1 26bd 9215 a9bd 31df c6bc f0b7 283e
00000140: c2f7 52bd 0651 dcbb 2b92 a53d c33d ecbd
00000150: 5aef fbbc 8f3e 8a3d 4e98 13bd 0025 9e3d
00000160: 0725 433d 9e39 dbbc 5803 533d 2f3c c03d
00000170: 3e89 953d c16b 47bd 5c22 49bc 9225 643d
00000180: 09eb 28bd e064 3cbd 24bd e2bc 692b 6fbd
00000190: 0e6b 183e fe0a d43d 3eb2 f43d cf04 8e3b
000001a0: 7d4b a0bd fc0a 463d 08b1 cf3d 8844 debc
000001b0: cdd9 a83d 86e6 743d 46a9 103e f43b b93b
000001c0: e474 df3d 7e81 37bd e834 6a3d 1d4a 093e
000001d0: b8d3 c5bd 5b0e 0c3e cf7f 363c 80ce 403e
000001e0: 8ba9 833d b25b 9e3d 4e07 133d 2956 453e
000001f0: 6318 b9bd 272e b83c 50a5 ce3c 37ca d0bb
00000200: 54ce ecba 549b 043e 0c30 203e 60a3 31bd
00000210: ce4e cc3d 1e6b 6ebd e782 23bd ed95 f2bc
00000220: 70bf 103e 6774 123e 193d e63d e961 963d
00000230: 0e2c 1cbc e6ba 913d 58e7 bd3d 26ae fe3d
00000240: 5727 89bd 5154 263d 53c1 0b3b e530 fd3d
00000250: 0cca 383e d6f3 c73c 2bf8 f03d e6a6 83bd
00000260: f8ae 7abd 39ea 3ebd 4fe5 30bd bd21 e23d
00000270: 0222 903d 4f72 2b3e 3176 e73d 3b39 0e3e
00000280: bd03 e13d 3db0 513d 0c58 6ebd ec95 373e
00000290: 34f6 2a3e b1f6 d83d 50e4 a93d 98fe d83d
000002a0: aaf1 103d cc6c f7bb 5d17 d03c 6782 0f3e
000002b0: 4a61 afbc 8a38 b83c dd89 70bd 8291 363e
000002c0: a727 9a3d 2f5d bc3d 745d 8f3d 5b93 133e
000002d0: 846c 05bd eff1 823c 860e d63c bb40 abbd
000002e0: f1b1 603d b99e 023e fa0f 43bd b9f5 35bd
000002f0: 1844 143d 8216 013e e8a8 293e e25f a43d
00000300: 5f8f 223d 54af a13d dffc 323c 4c43 1a3e
00000310: a82a b33d 5199 273e 585c ce3c ce8a 283d
00000320: 03b6 d3bc c11d 48bd ea9d a9bd e1c2 abb9
00000330: 86bd d33c b986 8abc 98ab 133d 2fcc f03b
00000340: cf0c 05bb 69f0 35bd 9271 f0bb bc84 13bd
00000350: 3b60 1fbe 66e3 8dbc 076a bf3a 525b 0cbd
00000360: c20b ee3c 7d2f 67bc ca82 4dbd 0125 7fbd
00000370: 0967 4bbd 846d 34bd 9010 69bc da48 43bd
00000380: b2e8 cd3b f03f e1bd 0cd6 693d cca2 f23d
00000390: 4947 81bd c332 c8bd 8a0a af3d 0513 e73c
000003a0: d7dd 3abd 7022 ba3c 3e46 063d cece 973d
000003b0: 1434 bebd ef1c 2e3d d29f 933d 91d4 eebb
000003c0: 39dc 09bd c839 ba3d e653 0bbd 032f 833b
000003d0: 4296 74bd 32b8 3fbd 0ac2 973d f3c5 e6bd
000003e0: af4e 183e 1126 77ba db50 63bd 3590 cf3c
000003f0: 02d8 c9bd 06b6 8fbd a0a5 d0ba ce8b 9dbb
0.07092234 0.13006076 -0.065590225 0.10996925 0.0032707618 0.11166548 -0.016691685 0.079337485
-0.289144 -0.0050426754 0.002782466 0.021846177 -0.03988354 -0.087181255 0.030709008 -0.0633017
0.039502785 0.03856117 0.014045598 -0.09439368 -0.11068695 -0.0813659 0.12418693 -0.053985253
0.082594626 0.0184299 0.15093488 0.04379685 0.018792212 -0.07202681 -0.18974546 -0.110990845
-0.3127446 -0.07919204 0.10230999 0.074971855 0.14676957 0.102353305 0.076355085 -0.0005840315
0.06295524 -0.02599945 -0.07211552 -0.14574945 -0.03479123 0.04155209 -0.049313616 -0.019832773
0.06475264 -0.0021158778 0.09576896 -0.0199088 -0.012482338 -0.0042419555 -0.034601044 0.14331666
0.1392646 -0.01829625 0.043227177 0.10822558 0.06560726 0.22152348 0.024102774 -0.24170665
0.24872902 0.07622686 0.0043013347 0.036912184 0.04853463 0.09068361 0.057036687 0.023605151
-0.12800609 0.102949746 -0.04297014 0.11761768 -0.040681753 -0.08256067 -0.024276348 0.16476417
-0.05150581 -0.006723526 0.0808452 -0.115352176 -0.03075378 0.06750213 -0.03603392 0.07721901
0.047642734 -0.026760872 0.05151686 0.09386479 0.073015675 -0.048686747 -0.012276258 0.055699892
-0.041239772 -0.04599464 -0.02767808 -0.05839101 0.14884588 0.10353659 0.119480595 0.0043340693
-0.07826898 0.04835032 0.10141188 -0.027132288 0.08244667 0.059790157 0.14127073 0.005652899
0.10910967 -0.044801228 0.05717936 0.13407178 -0.09659523 0.13677351 0.01113887 0.18828773
0.06428822 0.07732333 0.03589564 0.19271149 -0.090378545 0.022482945 0.025225312 -0.006371762
-0.0018066862 0.12949878 0.15643328 -0.043368697 0.09975968 -0.058207624 -0.03991976 -0.029612506
0.14135528 0.14302216 0.11242122 0.07342894 -0.009531988 0.07115726 0.09272641 0.1243556
-0.066969566 0.040607754 0.0021324947 0.123628415 0.18045825 0.024408262 0.11766084 -0.06428318
-0.06120202 -0.04661009 -0.043187436 0.11041591 0.070377365 0.16742824 0.1130184 0.13889019
0.10987041 0.051193465 -0.058189437 0.17928284 0.16695482 0.10593928 0.082955 0.10595435
0.03538672 -0.0075508114 0.025401765 0.14014588 -0.021408696 0.022487897 -0.058725227 0.17828944
0.07527094 0.09197461 0.07000247 0.1441168 -0.03257419 0.015984504 0.026129972 -0.08361956
0.0548572 0.1275586 -0.04762266 -0.044423793 0.03619775 0.12606242 0.16568339 0.08026101
0.03968751 0.07894769 0.010924547 0.15064734 0.087483704 0.1636708 0.025190517 0.041148
-0.025843626 -0.0488565 -0.08282073 -0.00032760858 0.025847208 -0.016909944 0.036052316 0.0073485593
-0.0020301824 -0.044418726 -0.0073377574 -0.036015257 -0.15564053 -0.017320346 0.0014603742 -0.034266777
0.029058341 -0.014110443 -0.05017356 -0.06229115 -0.04965881 -0.044049755 -0.01422514 -0.0476769
0.006283843 -0.10998523 0.057088897 0.11847457 -0.06312425 -0.09775307 0.08546932 0.028207311
-0.04562172 0.0227215 0.032781832 0.07412492 -0.09287277 0.042508062 0.07208218 -0.0072885235
-0.033657286 0.09093052 -0.03401556 0.004003407 -0.05971361 -0.04680652 0.07410057 -0.112682246
0.14873765 -0.00094279746 -0.05549703 0.025337318 -0.09855653 -0.0701714 -0.0015918501 -0.004807926

lstm.bias_hh_l0 f4 [400]
00000000: c7e8 e83c 2380 cd3d 202e 9d3a 349d 263e
00000010: e0e6 a9bd 6e2f a73d 9dff 283c cce6 04bd
00000020: 1cbe 79be 3b8d d6bd 22cc 2bbc e003 e73d
00000030: e7b9 19bd f49b 3bbc db99 eebc c8fd 71bd
00000040: 0a0c bebd faf2 373c 88cd 31bd 0e27 25bd
00000050: 8ba8 33bc 28e4 95bd 7482 3dbc 1765 7abc
00000060: 27f4 2dbc 6b38 9d3d 876a 72bc da89 c0bd
00000070: 541c ef3d 5bd1 973b c1ef cbbd 6caf f4bd
00000080: 2b62 8ebe dfae 1f3c 0629 ed3c bf07 6d3d
00000090: 9b0e 2b3e 0b54 0b3e 5b38 cd3c 59ff fabb
000000a0: 5422 b53b 2887 acbc 4456 84bd 1341 7cbe
000000b0: 6f98 c3bd 10df 8abb e8d6 b7bd 9034 e73d
000000c0: 399b 0c3d 87a4 d7bd 7e7e d53d 525a ddbd
000000d0: 68f3 ae3d 4937 1abe 678a c73c 4673 563e
000000e0: dc43 f43d 3885 a3bd 1613 113e c037 b43d
000000f0: 0276 9abd 1cc1 8b3e 202c ad3c d202 10be
00000100: ff43 8e3e 49b8 0abd 3888 103e b2f2 6bbd
00000110: 9578 b9bd 029d 513d f9e5 243e c8d1 2a3e
00000120: 6ef9 71be 752d 0d3d d843 023d 22ba ec3d
00000130: c9ad 243d 3e27 823d 089b ad3d 4b0f 913c
00000140: 9cf8 e4bd a31b 113e f782 df3d 944b 2cbd
00000150: d26f e43d ca7e 373d 9150 0d3d 78fa ce3d
00000160: bb55 90bc 632e ad3d 7478 963c 7c47 aebc
00000170: 68ea b23d 9d48 f1bc 8106 c6bb 46ed 0d3d
00000180: 7999 31bd 0eff 7f3d 0cfc 87bd 7cdb 2abd
00000190: a162 803c 15f4 1a3d a777 db3a 2bee a6bc
000001a0: 9cc7 aebd 1e84 33bc 3623 743c eb31 de3d
000001b0: d4e0 1c3e 5460 3e3c 5a72 093e b6b6 6b3d
000001c0: 5e12 d23d b5f3 83bd d95e 143e e219 84ba
000001d0: d4b9 65bd 0fad 493d 5645 023d 4cb9 6b3d
000001e0: cda4 19bd 7dae d33c 6598 de3d 9acf 423e
000001f0: 9a89 d53d f266 3a3e e82f ecbc b7fe eabc
00000200: 00ac 193e 2c29 ad3d 2415 0b3d 8ce9 bfbb
00000210: 9c3f d0bb ef1b 01bd d2d7 4abb 614a 693d
00000220: 7e01 68bc 0672 753c bdaa a4bc 3a6d 6c3b
00000230: b2b6 42bd 0de6 093e 459e ff3b 7fa0 263e
00000240: a7bb 663d 80f2 9c3d fd59 e93c f1ae ab3d
00000250: eb81 ea3d 6611 acba b8bf 733c 8235 4e3d
00000260: 6121 d53d 5d8f b6bb 55cf 823c a774 953c
00000270: b30e f83d b405 883d cc39 85bc 0507 443d
00000280: f150 a93d 59ed 123d 4b73 10bd cf09 233e
00000290: 14ff 053e a892 923d 8db5 213e 7b22 923d
000002a0: 01eb cd3d ad82 e8bc 1794 593d 1fc7 0c3e
000002b0: 5f1a 383d 6590 8d3d 1d22 4b3d 2288 b53c
000002c0: e495 b13d 7dee 7a3d 9c20 213e ca7b 4a3d
000002d0: 7287 0c3c d708 823d d650 eb3d 4e4c 89bd
000002e0: 752c 49bd bfa4 cd3d b976 44bd 24ce dd3b
000002f0: a3a7 d3bc ca57 0a3e d08b 093e b1a9 d1bc
00000300: e410 fa3d e5d9 dc3d 8aa9 ea3c 0a8d 933d
00000310: 7d1f 2bbd 6f0d 963c 19d2 2a3d df52 9b3d
00000320: 2524 933d d3b2 833d a892 0ebd a444 28bc
00000330: 6050 cc3c 8312 10bc f88f 253d 6daa 413d
00000340: 7836 24bc 8d0a afbd 77f4 753d 4663 b3bb
00000350: b50d 75bd bb26 813d d986 1cbd 2347 5a3d
00000360: 0e29 853d 7cb1 31bd 8765 8f3c 0a13 9e3c
00000370: 13cc 073d dcd7 c6bd e0de 99bd 3249 253d
00000380: 6027 1fbe 4fb7 e2bd fb45 bcbd 71e2 f8bc
00000390: 14de f63b 4fb4 eb3c 1d4c 5c3d 8aba 25bd
000003a0: ca6f 80bc 8989 de3c f69a 55bc 8c40 493d
000003b0: 05ac c9bb d701 17bc a422 a0bd b2d0 2bbd
000003c0: 8f46 cd3d f124 bd3b 5e2e 4d3d 98f8 e13d
000003d0: 51f6 b83c be02 0cbd b9ea 8abc bcf2 94bd
000003e0: 5b0d 123d 80bd 583d 94a3 873d 7821 65bd
000003f0: e4ab 643d ee3e ce3d 16c6 4abd 4bd8 753d
0.02843131 0.10034206 0.0011991896 0.16270906 -0.08295989 0.08163343 0.010314849 -0.032446668
-0.24388927 -0.10476156 -0.010485681 0.11280036 -0.037530806 -0.011450756 -0.029126098 -0.059079915
-0.0927964 0.011227364 -0.0434089 -0.04032045 -0.010965477 -0.07318908 -0.011566747 -0.015282891
-0.0106172925 0.076767765 -0.014795906 -0.09401293 0.11675325 0.0046331114 -0.09957839 -0.119475216
-0.2780927 0.009746282 0.028950226 0.057868715 0.1670479 0.13606279 0.025051286 -0.0076598343
0.005527774 -0.021060541 -0.06461766 -0.24634199 -0.09550559 -0.004238017 -0.08976537 0.112893224
0.03432772 -0.10529428 0.10424517 -0.10808243 0.0854252 -0.15060152 0.024357988 0.20942411
0.11927006 -0.07984394 0.14167437 0.08799696 -0.075420395 0.27295768 0.021139205 -0.14063576
0.27786252 -0.033867154 0.14114463 -0.0576045 -0.09056202 0.051175125 0.16103353 0.16681588
-0.23630306 0.03446718 0.031802982 0.115589395 0.040204797 0.06355141 0.084768355 0.017707488
-0.11180231 0.14170699 0.109136514 -0.042064264 0.111541405 0.04479865 0.034500662 0.10106367
-0.017619004 0.08456113 0.018367983 -0.02127432 0.08736116 -0.02945357 -0.006043256 0.03465011
-0.043359254 0.0624991 -0.06639871 -0.041713223 0.01567203 0.03783043 0.0016744033 -0.02037724
-0.08534166 -0.010956792 0.014900973 0.10849365 0.1532014 0.011619646 0.13422528 0.057547294
0.102574095 -0.06442968 0.14489307 -0.0010078514 -0.056085423 0.049237307 0.031804405 0.05754976
-0.037510682 0.025840038 0.10868911 0.19024506 0.10426636 0.18203333 -0.028831437 -0.02868591
0.15007019 0.084551185 0.03395571 -0.0058566984 -0.006355239 -0.03152078 -0.0030951393 0.0569557
-0.014160512 0.014980799 -0.020100946 0.0036075846 -0.047537513 0.13466664 0.0078008496 0.16272162
0.056331303 0.07663441 0.028485293 0.08382977 0.11450561 -0.0013127744 0.014877252 0.050343998
0.10406757 -0.0055712895 0.015968004 0.0182441 0.12112179 0.06641713 -0.016262911 0.047858257
0.082673915 0.035870884 -0.035266202 0.1592171 0.13085586 0.07156879 0.15791912 0.07135483
0.10054589 -0.028382624 0.053119745 0.13747834 0.044947024 0.06912307 0.04959308 0.02215964
0.086711675 0.061262596 0.15735096 0.04943446 0.008577215 0.06349342 0.114900276 -0.06704007
-0.049114663 0.100411884 -0.047964785 0.0067689586 -0.025836771 0.13510051 0.1343224 -0.02559361
0.12210253 0.107837476 0.028645296 0.072046354 -0.041778076 0.018316953 0.04170427 0.07584166
0.071846284 0.064305924 -0.03480783 -0.010270271 0.02494067 -0.008793476 0.040420502 0.04728167
-0.010022752 -0.08546934 0.060047593 -0.005474481 -0.059827525 0.063062154 -0.03821454 0.053290498
0.06501971 -0.043382153 0.017504467 0.019296188 0.033153605 -0.09709141 -0.07513213 0.040353008
-0.15542364 -0.110701196 -0.09193035 -0.030381413 0.007533798 0.028772501 0.053783525 -0.0404611
-0.015678305 0.027165191 -0.013037434 0.049133822 -0.0061545395 -0.009216747 -0.07819107 -0.041947074
0.100232236 0.005772226 0.050093047 0.110337436 0.02257839 -0.034182303 -0.016957628 -0.072728604
0.035657268 0.052915096 0.06622997 -0.05594012 0.05582799 0.10070597 -0.049505316 0.060020726

fc1.weight f4 [1, 100]
00000000: ea52 2b3f 2a03 12bf c486 7f3e f905 9ebe
00000010: 557b 6dbe 187f d7bd 433a 0bbf 5c0d 9bbe
00000020: 829e 0d3f cd8e 5c3d ba46 b93d 46df 303e
00000030: a335 ca3e 000d 9abe a26c 9b3d 4df1 f03e
00000040: 00b3 fc3e 4f29 b5bd 07a0 84be e41e b83e
00000050: b9ce ba3e 8bad 443f aa13 02be aa90 bf3e
00000060: 932d c63e 386c 0e3f 4e3a 033f 3cde 2a3e
00000070: 6568 c4bb 2fc5 26be b739 90be dc66 813e
00000080: 2f8c 163f c598 d83e a7a9 63bf eb40 bf3e
00000090: d3c9 013e febb 5c3d 25ca 903e 2f59 2cbe
000000a0: e9b1 29bf c31b 213e 4f94 bcbd 1ec9 06bf
000000b0: 4fda 2d3e 47e7 e9be 0877 8cb9 7b1b 5dbf
000000c0: 8ee3 073f 5ca1 ef3e 3ce3 57bf 1f34 25bf
000000d0: fe8e 263d 3f5f aa3e c83d 7abe f0ca 043f
000000e0: c5a8 db3e c072 e2bd 97fe 0a3f a8b9 853e
000000f0: 8739 093e 74f5 51be f2d5 e2bf 18b9 19bf
00000100: 0641 90bc 58bf c23d 85aa f2be 9a2b 56be
00000110: a143 fe3e 62fa 26be 4d75 cebe f308 e23e
00000120: 33af 9ebf 637c 5fbf 67a2 903d 0c9b 89be
00000130: b872 24be e423 0bbf c640 903c 5e0c afbc
00000140: 8c27 1dbf ca34 3d3f 9fd8 1f3f de0c d9be
00000150: c690 a83e b69e 0fbd 142c 81be 4c42 81be
00000160: 0e68 b63d 8a4b c53d efcc 29bf bfde 4e3f
00000170: 345b d2bd ff7b e5be ffc5 163e 0d0e 243e
00000180: 17bc 35bf 7fee 10bc cfc4 b0be 89fe 1d3f
0.6692339 -0.5703608 0.24953753 -0.30863932 -0.23191579 -0.10522288 -0.54385775 -0.3028363
0.5531999 0.053847123 0.09046693 0.17272672 0.39494047 -0.30088043 0.075890794 0.47059098
0.49355316 -0.088457696 -0.2590334 0.35961068 0.36485842 0.76827306 -0.12702814 0.37415057
0.38706645 0.5563388 0.5126084 0.16686338 -0.00599389 -0.16286157 -0.28169033 0.25273788
0.58807653 0.42304054 -0.88930744 0.37354216 0.12674646 0.05389022 0.28279224 -0.16830896
-0.66287094 0.15733247 -0.09207975 -0.5265063 0.1697781 -0.45684263 -0.00026791566 -0.86370057
0.53081596 0.46802795 -0.8433111 -0.64532655 0.04066371 0.33275792 -0.2443763 0.5187216
0.42902198 -0.11057043 0.54294723 0.26118207 0.13400851 -0.20503789 -1.7721541 -0.60048056
-0.01760913 0.09509152 -0.4739572 -0.2091507 0.49660972 -0.16306451 -0.40323868 0.44147453
-1.2397217 -0.87299174 0.07062226 -0.26876104 -0.16059387 -0.5435164 0.017609011 -0.021368202
-0.6138847 0.73908675 0.6243991 -0.4239263 0.32922953 -0.035063468 -0.2522894 -0.25245893
0.089065656 0.096335486 -0.6632833 0.80808634 -0.10271302 -0.44821164 0.14723967 0.16020985
-0.7099013 -0.008845924 -0.34525153 0.61716515
