model.pth (torch_old, 325071 bytes, 7 tensors)

conv1.0.weight f4 [50, 50, 8]
00000000: c7d0 cbbc ef3a 3f3d 7a8c ec3c 7087 823b
00000010: 7d81 073d fdcb 06bd 469f d23c 13dd 37bd
00000020: 519f 3a3d 10e6 9abc cacd acbc 0029 fdb9
00000030: 0072 143c 6327 103d 739d 0a3d 9457 63bc
00000040: 62fe bf3c 2800 123c bdfe 4bbd b817 403c
00000050: 58e0 7cbc 38d6 50bc fd1b 25bd e3e4 1c3d
00000060: e5be 0f3d a7b4 d8bc a899 fdbb d060 3f3b
00000070: 22c8 943c ca26 d7bc d776 b3bc 03d7 17bd
00000080: 1eb1 e93c f0a9 9c3b 2609 09bd a87a b8bb
00000090: 70e7 9b3b 9411 7e3c f22f 8a3c ed5a 40bd
000000a0: c219 cf3c e040 043b 1eb0 b63c 523a e33c
000000b0: 8011 c7bc 400f e8ba 382e 3abc 607a 97bc
000000c0: 1c79 02bd 106f 42bd 7b89 11bd bebe 08bd
000000d0: 50d1 f0bb 7abd 20bd bb88 29bd e075 72bb
000000e0: 3251 14bd 8983 183d f2da a33c 003f e3bc
000000f0: 3b57 1abd 3679 0abd 3480 423c 702f a9bb
00000100: 80dc 2fbb 80d4 2ebd ad42 a7bc 08f4 233c
00000110: 6c26 713c ffb3 023d 002b 99ba b31e 10bd
00000120: c5f5 46bd 0066 8fbb 4b10 343d feb6 f73c
00000130: beb0 9a3c 985f 00bd f10b 203d 9831 d6bb
00000140: eaa8 32bd 8859 61bc 17d3 aebc 9152 323d
00000150: a3b3 14bd 1ba7 2ebd 5396 9ebc 68f3 2dbd
00000160: 0fc1 4abd 45b8 2bbd 1782 d2bc 500c b73b
00000170: 68eb ad3b fcfe 8dbc 25b7 0bbd 6854 403c
00000180: 12d4 0bbd a685 843c c8e9 7bbc c092 9dbb
00000190: 6f42 32bd d21b d43c 2c09 47bc 42fd 803c
000001a0: a2e5 803c 40b0 df3b 23da 393d 9de9 3f3d
000001b0: 2287 c53c f542 42bd 50b7 e4bb a5a0 153d
000001c0: 30b3 ffbb a0ed ea3a 800f 043b 6237 1bbd
000001d0: 881d 173c 37bc 173d 87b5 413d c692 bd3c
000001e0: ea07 bb3c d4a5 7ebc b255 e63c b09b b5bb
000001f0: 00dc c138 caf1 e9bc 181e 9fbb adec c8bc
00000200: 4a25 99bc 1082 bb3b 0e45 fd3c 94d0 95bc
00000210: 2cfe 91bc 16aa 14bd d444 09bc 78bf 41bd
00000220: a3bd 4abd 0ce9 7dbc 3a8e 97bc bdc1 303d
00000230: 1007 f9bc 8d0b fcbc 8a6d 2dbd ffb7 0e3d
00000240: c0b6 33ba e882 62bc 9848 a83b 0000 e4b7
00000250: 4db5 d7bc eedf dc3c f710 a8bc 2864 8ebb
00000260: 65e4 27bd 40c2 ebbb 92f6 06bd 8591 36bd
00000270: da74 863c ea8b 29bd f4da 0a3c 4718 f6bc
00000280: d225 b83c 0cc1 343c a0f6 29bd b158 373d
00000290: 3d02 27bd 80ca 433b a11a 153d 24e3 703c
000002a0: bac2 b4bc 1348 eebc b6ef a23c 404c d9bb
000002b0: 2ae1 dcbc 5f49 3f3d 9e97 f73c 96e1 25bd
000002c0: a11e 063d 70fc fb3b 2e0a 24bd 9714 3b3d
000002d0: ed99 c0bc 5ea1 0cbd d85b 3bbd 100c 9abb
000002e0: 55c5 3e3d a0d8 29bc daaf b23c 5682 f83c
000002f0: bde8 0abd 42d4 40bd b071 aa3b 92f2 c23c
00000300: 40e6 99bc 8764 2c3d f19b 173d 4062 f63b
00000310: baf8 17bd 3d35 083d 7117 353d 08f6 173c
00000320: 8c0b 73bc 98d0 60bc aacb c13c 50f7 86bc
00000330: 03c4 2fbd d05f 553b 771d afbc 807d 243c
00000340: ab89 4c3d c0c5 9eba 8f62 2c3d b57a 383d
00000350: 42e3 f43c 8023 043b 541a 83bc f024 fd3b
00000360: a001 30bb 49a9 063d 8a5a b0bc e013 28bb
00000370: d6dd a93c f33b e1bc 3806 2fbc c0b5 0f3c
00000380: 600b 14bb 666c d63c bd2d 18bd 4286 8d3c
00000390: e1c5 4a3d 734a 24bd 43a9 a1bc 80d0 e4bc
000003a0: 4227 37bd cd46 d5bc d42a 57bc dcbd 6e3c
000003b0: 984b 6cbc 334e 273d 2853 47bd c0e2 feba
000003c0: 4e66 973c e1a5 443d 2ec9 f53c 30e3 0bbb
000003d0: e0c0 15bb 740d 2abc f2eb 8e3c 6668 bb3c
000003e0: d975 353d d541 2f3d f841 17bd 367a 1abd
000003f0: c0ea 2bbc 9222 9c3c fd76 11bd c3b8 b3bc
-0.024879826 0.046687063 0.028875578 0.0039834306 0.033082474 -0.032909382 0.025710713 -0.044888567
0.045562092 -0.01890853 -0.021094222 -0.00048286468 0.009060383 0.035193812 0.03384156 -0.013875861
0.023436729 0.00891117 -0.049803484 0.011724405 -0.015434347 -0.012746386 -0.040309895 0.03830422
0.03509416 -0.02645333 -0.0077392645 0.0029201992 0.018161837 -0.026263613 -0.021907253 -0.037070286
0.028526839 0.0047810003 -0.03345599 -0.005629856 0.004757814 0.015507121 0.016868565 -0.046961714
0.025280837 0.002018027 0.022300776 0.02773777 -0.024300337 -0.001770474 -0.0113635585 -0.01849097
-0.03185378 -0.0474692 -0.035531502 -0.03338503 -0.0073491707 -0.0392432 -0.041390162 -0.0036996529
-0.036210246 0.037234817 0.020001862 -0.027740002 -0.037680846 -0.033807002 0.011871386 -0.0051631257
-0.002683431 -0.042683125 -0.020417536 0.010006912 0.014718633 0.03190994 -0.0011685789 -0.035185527
-0.048574228 -0.004376173 0.04396085 0.030238625 0.018883105 -0.031341165 0.03907389 -0.0065366738
-0.04361812 -0.013754256 -0.02134089 0.043535773 -0.036304127 -0.042639833 -0.01935879 -0.04246846
-0.04950052 -0.04192378 -0.025696797 0.0055861846 0.0053076036 -0.0173335 -0.034110207 0.011738874
-0.034137793 0.01617701 -0.015375562 -0.0048087537 -0.043520387 0.025892172 -0.012148183 0.015745763
0.015734497 0.0068264306 0.045374047 0.04685365 0.024112288 -0.047427136 -0.0069798604 0.036530156
-0.0078033432 0.0017923601 0.002015084 -0.037894614 0.009223349 0.03704473 0.04729226 0.023141276
0.022830922 -0.015542466 0.028117035 -0.005542241 9.243935e-05 -0.028557677 -0.0048558824 -0.024526918
-0.018694539 0.005722292 0.030916717 -0.018287934 -0.017821394 -0.03629502 -0.008378226 -0.04730174
-0.049497258 -0.015497457 -0.018500436 0.043153513 -0.030398875 -0.030767227 -0.042340793 0.03484344
-0.000685554 -0.013825156 0.005135607 -2.7179718e-05 -0.026331568 0.026962247 -0.020515902 -0.0043454356
-0.0409893 -0.0071947873 -0.03294999 -0.044572372 0.016413141 -0.041393198 0.008475054 -0.030040873
0.022478972 0.011032354 -0.041494966 0.044762317 -0.04077362 0.0029875338 0.03640235 0.014702592
-0.02206551 -0.029087102 0.019889694 -0.006631404 -0.026962835 0.04670083 0.030223664 -0.04049834
0.032744054 0.007690005 -0.04004877 0.045673933 -0.023510898 -0.03433358 -0.045741886 -0.004701145
0.04657491 -0.010366589 0.021812368 0.030335587 -0.033913363 -0.047077425 0.005201541 0.023797307
-0.01878655 0.042088058 0.03701395 0.0075190365 -0.03710244 0.033253897 0.04421181 0.009274967
-0.014834296 -0.013721608 0.023656685 -0.01647535 -0.04291154 0.003255833 -0.021376355 0.010039687
0.049935978 -0.0012113377 0.04208618 0.045038898 0.029893521 0.0020162761 -0.016003765 0.0077253506
-0.0026856437 0.032876287 -0.021527547 -0.0025646612 0.020735662 -0.027494406 -0.010682635 0.00877136
-0.0022589788 0.026174735 -0.037152994 0.017275933 0.04950512 -0.040110063 -0.01973403 -0.027931452
-0.044715174 -0.026034737 -0.01313277 0.014571633 -0.01442232 0.04084606 -0.04866329 -0.0019446239
0.0184814 0.048009757 0.030003157 -0.002134513 -0.0022850558 -0.010379184 0.017446492 0.02287693
0.04430184 0.04278739 -0.036928147 -0.037714206 -0.0104929805 0.019059453 -0.035513867 -0.021938687

conv1.0.bias f4 [50]
00000000: 1509 063d 208f c5bc 33d2 aebc 2a19 9ebc
00000010: ec9d 46bc 530b f7bc 68a2 393c b139 383d
00000020: bdf3 3cbd f89d 403c 78a2 043c d0f1 e13b
00000030: 3741 c9bc 6151 1a3d b305 493d 960c 03bd
00000040: 380d 073c 98e0 3c3c d14d 483d 76fa e83c
00000050: c048 cabb 5094 c03b a298 e43c 2658 e53c
00000060: ecb2 013c 225b 923c f6ae ef3c bd3c f9bc
00000070: e8db 6ebc 4d4c 323d 368b 03bd caf4 cb3c
00000080: 46a3 af3c 0f8a 123d 9338 cbbc 8074 28bc
00000090: 22e2 35bd 0bcd 45bd fb1e 22bd fe8b ac3c
000000a0: 8203 ce3c 8129 203d d8c7 4fbc 00f3 ccb9
000000b0: 863b c83c e0ea 2ebc 742c 05bd 8258 8d3c
000000c0: 404a ed3b 60a6 d9bc
0.032723505 -0.024116099 -0.021340465 -0.019299109 -0.012122612 -0.030156767 0.011330225 0.044976894
-0.046130884 0.011756413 0.008095376 0.0068952814 -0.02456723 0.037675265 0.0490777 -0.031994425
0.008242898 0.011528157 0.048902337 0.028439742 -0.0061732233 0.005877055 0.027904812 0.027996134
0.007916193 0.017865721 0.029258233 -0.03042447 -0.014578797 0.043529797 -0.032115184 0.024896998
0.02144016 0.035776194 -0.02480725 -0.010281682 -0.04440511 -0.048291247 -0.039580327 0.021062847
0.025148157 0.03910208 -0.012681924 -0.0003909096 0.024442445 -0.010676116 -0.032513097 0.017254118
0.0072415173 -0.026568592

lstm.weight_ih_l0 f4 [400, 50]
00000000: 114f ee3d 64a9 9b3e fb39 d33c c113 2d3e
00000010: 798b 4d3d 5c5e 1dbe 4b06 243e fe26 bdbd
00000020: 94a7 d73e a334 96be 1e48 263e 3fb0 50be
00000030: aedb 1a3e c7c6 273e 90ad 823d 1614 2bbd
00000040: 48f4 8bbd 3db1 ba3e 87b6 903d e081 c3bd
00000050: 887b 793e 5897 94bd 6ada 77be 78ea 773e
00000060: 3322 87bd f132 953c aa55 08be f9f6 8dbd
00000070: 5cba 2fbe 8626 9e3d 662d 21bd 1858 d53d
00000080: 84f6 223c 1d82 aebd 2a80 8ebd 1c3a 193e
00000090: 80fb 16be 244b 14be f241 1cbd 00ac 633e
000000a0: 9d4a 08be 7a32 bd3c 826f 8b3e 0626 4a3d
000000b0: ef5b d43d 871d b1bd 94d2 0f3e c6ee 84be
000000c0: f6a3 36be 45e4 91be f824 25be b344 bfbe
000000d0: 36e3 4fbe ede1 c53a d037 3c3e 49e1 803d
000000e0: 352e 293e 07a9 833e 7720 cabd 2b49 e33d
000000f0: 0c6e 9ebd 363d fe3d 1d62 a13e 6962 333e
00000100: 1584 143e 97bb bfbe 0cc4 103e 3521 4b3d
00000110: cb37 913d 5ece 54be b00d b03d 8f7c 92be
00000120: b403 e6bd 3c70 25be 1eee 3c3e e0ac 803e
00000130: 9141 8cbe abb3 ccbd 8752 2d3d 09e4 9c3e
00000140: 0167 02be 12d0 8dbe 9f0c 803c 7561 1d3e
00000150: 06de 6a3d 8436 843e a678 063f 92a9 e1bc
00000160: 9375 0cbf 64a2 52be e2b3 243f 0de3 d7be
00000170: eb33 30bc 0299 6b3d 62fb 32be 6467 bc3c
00000180: 1f02 023e 5e25 413f 2990 9a3e c556 a23d
00000190: 82a3 af3c e75f ecbd eaf8 29bd d701 34bd
000001a0: ab50 943d ae25 9dbd 1a2d 743e 1335 48bd
000001b0: 2fc5 3ebc eba6 c1be af3d 1a3d e06d 0b3d
000001c0: 6c4c b93e 6f48 c83d cdee 1c3d 65ed b93d
000001d0: e03d 8ebe c8e9 b43d d1b8 9abc aca8 fd3d
000001e0: 2533 50be 6e22 ddbd 26c1 ccbc 5329 98bd
000001f0: 2334 f3bc 2af6 0dbc 9161 353e f654 1a3e
00000200: 6e06 bd3d 4787 873d 2c0b 04be 2535 3abe
00000210: 2100 ffbd 2630 413e 8ef4 0a3d 64ae d0bc
00000220: b98f 4e3e 6276 09bd 3e24 1d3d 7c44 7f3c
00000230: 6c6b 243e 97d4 b73d 08ad ae3e 9e0d 013e
00000240: 5458 63be 16a4 5dbb 28b8 ef3c f3e5 38bd
00000250: 8763 223d 9d1c 3abe 9c12 f7be c035 163d
00000260: 4849 36be 3494 b4be 9dc9 a13d 66a8 4bbe
00000270: d596 613e a9de 043d f4d6 36be 87aa cabd
00000280: 26fd 8abe 8a4b 26be 09e5 b93d 2eb4 15be
00000290: f7bd af3c b65a e1be 6b99 1cbe a64b 1b3e
000002a0: 431f bcbd 61ec 4b3e 8cff e4be c3c0 fa3c
000002b0: 829f 073f 8bfb 87be 3360 6c3e 8d01 be3e
000002c0: 8606 6fbd e5df 34bd 980f 843e 60ac 993e
000002d0: dfa1 35be b9b8 cb3e 59e9 9a3e 761b d03e
000002e0: 0503 3b3e 364c 223e 9d28 bb3b 95c9 0e3f
000002f0: ea3e 1abc 7e30 d83d 41a0 4fbd 9452 d6be
00000300: e173 613d fd3e 153e f072 bb3c bde2 793e
00000310: c93c f63d 2e5b c6bd a083 023e 0b54 f1bd
00000320: 5e1a 8ebd 4bd4 463e f836 3abd a6ad eb3d
00000330: 52f5 9bbd 30dc 5c3d 8537 323e 561a 173e
00000340: 3caa b1bd bf58 95be de1f cd3c e483 a6bd
00000350: 9590 bcbd 06e9 0ebe c6ea bbbd 3ff1 00be
00000360: 7ffa 4cbe f892 60be 8641 84bd acc4 823e
00000370: ddc4 103d 2a2f 9fbc f1ea f13e 9dc7 12bd
00000380: 0406 193c ad6b ea3d b99e 033e 8860 f23d
00000390: 265e cfbd 87a2 443e 707a 883c 9a8e 18be
000003a0: 8518 bf3e 1b03 043e 4869 963d d26a 4dbc
000003b0: fe13 563d dbe0 b0bd c0b3 9e3e d7ad 8e3e
000003c0: 9625 8b3e ec93 483d c7cc bbbd efe8 0ebf
000003d0: 9763 9cbe 8425 33be 4916 ce3e d084 69be
000003e0: 4ac3 373d 6302 bd3d d8b0 96bd 61a9 943c
000003f0: 14bd f1bd 9ec9 9a3d c330 91be 1444 47bd
0.116361745 0.30402672 0.025784483 0.16902067 0.05018184 -0.15368026 0.16018026 -0.09235953
0.4212004 -0.29337034 0.16238448 -0.20379733 0.15122864 0.16384421 0.06380761 -0.041767202
-0.06833702 0.36463347 0.07066064 -0.09546256 0.2436353 -0.07255429 -0.24204412 0.24210536
-0.0659832 0.018212767 -0.13313928 -0.06931872 -0.17160934 0.077221915 -0.039349936 0.10417193
0.009946469 -0.08520911 -0.06958039 0.14963573 -0.14744377 -0.14481789 -0.038148828 0.22233582
-0.13309713 0.023095358 0.2723351 0.04935267 0.103690974 -0.0864821 0.14045173 -0.2596342
-0.17835984 -0.28494468 -0.16127384 -0.373571 -0.20301518 0.0015097238 0.18380666 0.0629297
0.16521533 0.25714895 -0.098694734 0.1109794 -0.077358335 0.12414019 0.31520167 0.17518009
0.1450351 -0.37447807 0.14137286 0.049592216 0.0709072 -0.20781848 0.08596361 -0.28610656
-0.11231175 -0.16156095 0.1845021 0.25131893 -0.27393773 -0.099952064 0.042315032 0.30642727
-0.12734605 -0.27697808 0.015631018 0.15369208 0.057340644 0.25822842 0.52527845 -0.027546678
-0.54866904 -0.2056976 0.6433698 -0.42165413 -0.010754566 0.057518966 -0.17478707 0.02299852
0.12696122 0.7544764 0.3018811 0.07926706 0.021440271 -0.115417294 -0.04149715 -0.043947067
0.07241949 -0.076732025 0.2384533 -0.04887874 -0.011643692 -0.3782266 0.037656482 0.03404033
0.36191118 0.097794406 0.038313676 0.090784825 -0.27781582 0.08833653 -0.018886955 0.12385687
-0.2033201 -0.107975826 -0.024994444 -0.07429757 -0.029687947 -0.008664647 0.17713 0.15071473
0.09229742 0.06617599 -0.12894887 -0.18184336 -0.124511965 0.18866023 0.03392463 -0.02547378
0.20172013 -0.033560164 0.03836464 0.015580293 0.16056603 0.08976095 0.34116387 0.12602851
-0.22201663 -0.0033819727 0.029262617 -0.04514117 0.039645698 -0.18174978 -0.48256385 0.036672354
-0.17801392 -0.3526932 0.07899783 -0.19888458 0.22030194 0.032438908 -0.17855436 -0.09895807
-0.27146262 -0.16239753 0.09076888 -0.14619514 0.021452887 -0.4401452 -0.152929 0.15165576
-0.0918565 0.1991439 -0.44726217 0.030609494 0.52977765 -0.265591 0.23083572 0.37110558
-0.05835583 -0.044158835 0.25793147 0.30014324 -0.1773753 0.3978937 0.30256155 0.4064595
0.1826287 0.15849385 0.0057116286 0.5577634 -0.009414414 0.10556124 -0.05068994 -0.41859877
0.05504215 0.1457481 0.022881955 0.244029 0.120233126 -0.0968536 0.12745523 -0.11783608
-0.06938623 0.19416921 -0.04546258 0.1150773 -0.076151505 0.053920925 0.17403992 0.1475614
-0.08675048 -0.2916927 0.02503961 -0.08130625 -0.09207264 -0.13956079 -0.09175639 -0.12592028
-0.20017432 -0.21931064 -0.0645781 0.25540674 0.035343993 -0.01943167 0.4724956 -0.035834897
0.009339813 0.11446319 0.12853517 0.11834818 -0.10125379 0.19202624 0.016659945 -0.14898148
0.37323394 0.1289181 0.073442996 -0.012537675 0.05226516 -0.08636638 0.30996513 0.27867004
0.27177113 0.048969194 -0.091699176 -0.5582418 -0.3054473 -0.1749478 0.40251377 -0.2280457
0.044863977 0.09228971 -0.07357949 0.018147172 -0.11803642 0.07557987 -0.28357515 -0.04864891

lstm.weight_hh_l0 f4 [400, 100]
00000000: 5d6b 823d 1da3 933d 0e63 573e 5bfb 49be
00000010: 15a6 a93c b499 0abd 085c cd3c b92a bcbd
00000020: b4f8 e7bc 67ca d1bd 0e21 56bc 4636 ddbd
00000030: 387e d3bb b169 1b3d 2f27 813b 127c ff3d
00000040: 43c6 bf3d a629 893d 36e6 aabd ee54 8bbd
00000050: 12c8 60bd 49ca 803c 49ef 69bc b759 783c
00000060: 5eb4 2ebe df8a 1cbd 768c 853d 4fd8 dcbd
00000070: 2ebf 18bd 1a1b 3f3d 5ea3 44bd 4e95 433d
00000080: 84d6 693d 3685 45bd de00 8a3b 136e 563e
00000090: e7c6 9b3d c512 073e 9245 2c3c ebbd 12bd
000000a0: 49e0 f2bc 275f 8dbd ef16 f9bc c6aa 1cbd
000000b0: 35ed 293e 403d a6bc fd6e f83c 7e39 85bc
000000c0: 96c9 04be 8c30 b83d 2357 0bbe 7506 3bbd
000000d0: 2e45 c93c 6526 99be eaa8 ea3d f89b 3fbd
000000e0: ef59 693a b158 ccbd c3a0 8ebd 058f da3c
000000f0: 53bc b0bd aa0c cfbd ee5d 35bc b075 103d
00000100: e830 c23d 7be6 eabd 42a0 73bd c8bf 4b3d
00000110: c558 e7bd 3710 70bd 6e32 2bbc d73a 1dbe
00000120: ab26 6c3d ea08 ef3d bca1 4abd ca42 d5bd
00000130: 5ba7 18bd 64a6 de3d 7ed8 ea3d 5871 66bd
00000140: b901 2ebd 9f88 e53d 1329 013c a098 053d
00000150: bf91 fa3d 52cb f93d b129 683d ac6f c0bc
00000160: 26f9 a83d 537d 753e eab1 3e3e 1a7f 2e3c
00000170: 0080 a2bd fc09 583d 1243 3d3e d0ca 09bd
00000180: c351 463c 5ac2 dbbd e0ec 73bd 67bc f43d
00000190: efe7 203d 2875 23bf 6a46 333e 4be7 94bd
000001a0: f2e3 57be c5a8 6ebe b599 b03c c11f f1bc
000001b0: cb16 563c 7d99 8e3d 8bd0 0b3d 3ba8 303c
000001c0: b236 b53d 3afb 863d ca4d 34be 662b 123e
000001d0: e96c 483e eea5 c33c dc4f b8bd e1d5 11be
000001e0: 851c 1b3e 200f 0dbd f712 003e 8c05 163d
000001f0: 7de7 8c3d 1373 d53e 9fa5 bc3d bd99 8bbd
00000200: e1e9 403d 9cfc 8c3d ae08 143e d66e 153d
00000210: 323d d0bc 979c de3c ae9b b43d 5c39 dbbc
00000220: a6b2 57be db87 07be 0862 2e3e d5d4 8e3d
00000230: 601f 88bd 0a4d 42be 7697 6e3e 00fe c3bd
00000240: 8549 dbbd 26d8 1bbe 0daf 9abd f68b 843e
00000250: 8dda 09bd 8adc 5c3e 5233 57be e890 9c3c
00000260: 9ee4 103e 263b 933e 5d9a 1cbe b17b 12be
00000270: 7ddd 32be 7861 223d 3710 b0be b7e1 d73d
00000280: 51b2 43bd 2e04 b8bd f776 8f3c f5ad 683d
00000290: 7f1b 033e 43f2 573c 0cf5 8a3d 9e80 14be
000002a0: 4794 10be bfac 323c 4eb4 8fbe 256d 133e
000002b0: a931 f4b9 7838 213e 1d7a adbd 848a 9fbd
000002c0: 454b fd3d 7c9b 8cbd 1f27 aa3d f6db 1bbd
000002d0: e3fa 67be b068 02be cac2 ad3d ff5a 223d
000002e0: 5bb8 383e 8b8f dabd e651 45bd 65f8 973d
000002f0: d1f3 603d 6a07 773d cc4f 17bd d0ab 63bd
00000300: aaaf 4d3a 99a8 cc3d 677e b23e cd8e 98be
00000310: 3f74 24bd a07a d0bc 95f9 eabd 45ce c7bd
00000320: 858f 233e 3fff 87bd 81b7 dcbd 4454 3abd
00000330: fc17 263e 4f8d c4bd ae5c ca39 cadf 7b3d
00000340: efdf 153c b4b7 aebc a430 033e 2cd5 7fbd
00000350: ce0e a63d d1d4 aabd 3eee 3abc 2ff8 12be
00000360: 0f77 29bd 8ffd 8f3d 139f 6a3e cc98 2d3d
00000370: 6e01 25be d896 203e fdf5 293e c0a9 97bc
00000380: 0699 f2bd 976f d33c 876b a53d f602 3b3e
00000390: b7c2 b9bd ad44 92bc e2b0 adbc 0557 463e
000003a0: 5d2f 2c3d b381 143d adf2 3a3d e5b2 83bd
000003b0: ae5e cf3c e1a4 4c3d bc0d 243e c445 a13d
000003c0: 9fbb 1cbe b848 e63d 6333 a2bd 2d7f 273d
000003d0: dfcd b1bd 1c87 813d 838a 2ebe dc15 013d
000003e0: 1b7d 0b3e 8d08 bc3d 5365 b7bd 2fd3 a33d
000003f0: 227c 96bc 31f4 72be 0056 c9bc 8672 f0bd
0.06368134 0.07208846 0.2103388 -0.19724791 0.020709077 -0.03383799 0.025068298 -0.09187836
-0.028316833 -0.10243683 -0.013069404 -0.108013675 -0.0064542554 0.037942592 0.0039414386 0.124748364
0.09363987 0.06697397 -0.083446905 -0.068033084 -0.054878302 0.015721457 -0.014278241 0.015158108
-0.17060992 -0.038218375 0.065209314 -0.10783445 -0.0372917 0.046656705 -0.04800736 0.04774981
0.057089344 -0.048222743 0.004211529 0.20940427 0.07606297 0.13190754 0.010514634 -0.03582565
-0.029647963 -0.069029145 -0.030406443 -0.0382488 0.16594394 -0.020292878 0.03032636 -0.016262766
-0.12967524 0.089936346 -0.13607459 -0.045660455 0.02456912 -0.29912105 0.11457999 -0.046779603
0.0008901646 -0.09977854 -0.069642566 0.026679525 -0.0862967 -0.10109837 -0.011069758 0.035268486
0.094819844 -0.11469742 -0.059479006 0.049743444 -0.11296228 -0.058609214 -0.010449035 -0.15354477
0.057654064 0.11671622 -0.04947065 -0.1041313 -0.037268978 0.1087158 0.11467074 -0.056260437
-0.04248211 0.11207699 0.007883328 0.032616258 0.1223483 0.121969834 0.056680385 -0.02349075
0.08250646 0.23973589 0.18622556 0.010650421 -0.0793457 0.052743897 0.18482617 -0.033640683
0.012104454 -0.10730429 -0.059552073 0.119499974 0.03928369 -0.6385064 0.1750733 -0.07270678
-0.21083048 -0.23306568 0.021557668 -0.029434087 0.013066958 0.06962869 0.03413443 0.010782297
0.08848323 0.065908864 -0.17607799 0.14274368 0.19572796 0.023882832 -0.08999607 -0.14241745
0.15147598 -0.034438252 0.12507235 0.036626384 0.068800904 0.41689357 0.09211277 -0.068164326
0.047098044 0.06884119 0.14456436 0.036482655 -0.025419805 0.027174277 0.08818756 -0.02676075
-0.21064243 -0.13235418 0.17029583 0.06974188 -0.06646609 -0.189747 0.23299965 -0.09569931
-0.10707382 -0.15219173 -0.075529195 0.25888032 -0.033655692 0.21568504 -0.21015671 0.019112065
0.1414971 0.28756064 -0.1529326 -0.14304997 -0.17467304 0.039643735 -0.3438737 0.105410986
-0.047777478 -0.08985172 0.017512782 0.056806523 0.12803458 0.013180318 0.0678502 -0.14502189
-0.14119063 0.010905444 -0.2806725 0.14397104 -0.00046576306 0.15744197 -0.08470557 -0.07790092
0.12367872 -0.06865594 0.08308243 -0.038051568 -0.226543 -0.12735248 0.08484419 0.039637562
0.18039076 -0.1067191 -0.048173808 0.07420424 0.05492002 0.060309805 -0.036941335 -0.055583775
0.00078463054 0.09993095 0.34862062 -0.29796448 -0.040149923 -0.025449097 -0.11473385 -0.0975614
0.15972717 -0.06640481 -0.10777188 -0.04549052 0.16220087 -0.09597265 0.00038597494 0.06149272
0.009147628 -0.02132783 0.12811524 -0.062459156 0.081082925 -0.08341373 -0.01140934 -0.14352487
-0.04137331 0.07030784 0.22912244 0.042382047 -0.16113827 0.15682542 0.16597743 -0.01851356
-0.11845593 0.025810046 0.0807715 0.18262848 -0.09070342 -0.017855013 -0.021202508 0.19369133
0.042037357 0.036256503 0.04564159 -0.06430606 0.025313701 0.04996193 0.16020864 0.07874635
-0.15305947 0.11244339 -0.079199575 0.04089277 -0.08681845 0.06324598 -0.17045026 0.031514987
0.13621943 0.091813184 -0.08954873 0.079992644 -0.018369738 -0.23725964 -0.02457714 -0.117405936

lstm.bias_ih_l0 f4 [400]
00000000: 8922 393d 42b1 463c b879 be3d 5839 9bbd
00000010: a81b c83c 54fe e33c 3693 863c b47c 18be
00000020: 278a 973a 47dd 4a3d 239d a73c 74bd 013c
00000030: 9544 ad3c b8b3 323d 6607 5ebd 063c c03d
00000040: 2c60 343e 5012 c4bd 5e5d 09be d956 51bd
00000050: 9d68 aabd 3bcf 793d 8cb1 333e 537c 05bd
00000060: 42b9 2b3d 3bdb 88be 4642 34bd 96c9 4abe
00000070: ac6d 85bd cdc5 b5bd b8a8 a5bd 9201 fc3d
00000080: 678f bb3c 7f44 27bb 27b5 e4bd 2389 883e
00000090: 4438 463e 9424 503c a0f2 0dbe d923 efbd
000000a0: d3bc 003e f137 12bd 3db5 04be e71b a73b
000000b0: 1970 c93d e74b 183d 0eff 3f3d 7bb5 a6bd
000000c0: 1d57 723c 5b54 993d 22ad 023e 3922 dbbd
000000d0: 21f3 7ebd dd8c 083e 9698 e9bc c9cf acbc
000000e0: a0ce 6f3d 0617 f0bd 3397 623e d94f fdbd
000000f0: ff9f 19bd 26c4 2fbc d371 d03d d2b8 44bd
00000100: 4a27 b13d bb0d 4dbd e6fe 81ba c68f 03be
00000110: 1ea9 76bd 6cf0 503c d4f9 9ebb 3da3 f23d
00000120: cad3 1dbe d78f 363b 3bdd 733d e425 cdbd
00000130: 039d 0abd e999 b93c 57cf c33b 9a91 f5bc
00000140: bcad 9c3d a759 6cbd f120 aebd e995 f63c
00000150: 3c89 26be 25e7 a5bd ba6f c5bd 0b99 d43c
00000160: 55f4 2e3e fce8 1e3d ce4c 95bd 8a38 d6bd
00000170: ac10 fcbd 7a4f 9f3d 4933 a7bc b753 7bbd
00000180: f0e9 e5bd ff99 6a3a 708e 823a 69b9 7ebd
00000190: c816 383b 2ea1 5c3c ac12 cb3c f5cf 9fbd
000001a0: ca02 c23c 3816 ff3c 0c84 633e fca1 193d
000001b0: de4f 09be 4ada 103d 3531 fcbc f59d 043e
000001c0: 7e54 9b3c 63e0 6f3d f829 bf3a 0145 d339
000001d0: 8887 9b3d 1d8f bd3d 300d d4bd 4dbc 093e
000001e0: adf8 84bc f47f 1d3e 3cf7 e93d 9d45 00bd
000001f0: b470 a93c 8a2a cf3c b0be ffbb 0ce9 d5bc
00000200: fef1 743d b1f9 a33d 0c00 a13d 8335 163e
00000210: 69de 523b 0e19 0e3e a350 e63d eed6 c73d
00000220: 57fb 843b 164a 3c3e e61b 243e 49e6 3f3d
00000230: c25f 7f3d 93e7 673d 54e8 5e3d 1331 493e
00000240: 0307 ccbd fae6 dd3d 46c3 bf3d 1661 f63d
00000250: 0a7c 7c3d 97b5 fbbc 22ce 1d3e 5253 873d
00000260: 0f7e d33d b4fc 76bc 54b8 123e d837 e53d
00000270: 7623 543c 398a 283d 09b9 87bc 8349 373e
00000280: 67ba 5a3e 10f0 a73c 7d88 683e 37d3 843d
00000290: f9f1 bb3d f3b6 0b3e 2974 fa3b d07c 093d
000002a0: 1c59 513d e33e 303d 1d32 b73d 7b3a df3d
000002b0: ec49 043e 27f4 e53d 78db 0a3e 1a60 ab3e
000002c0: 226a b43c 4322 6f3d 3b14 19bd 3cd2 e03d
000002d0: c8a6 503d 30f4 753d 040d ccbc 1101 ae3d
000002e0: f124 0a3e c036 b23c 225f 17bc 4f23 dd3d
000002f0: 1766 893d adb3 90bc b9c4 e03c a041 5c3c
00000300: 4d72 2dbb c9e0 f13d 325c c6bc f598 353d
00000310: 6fba a43d 9a3d 2b3d 5a05 a33c 849c 1f3e
00000320: d3cb c8bd f200 113d c366 513d d690 aebd
00000330: b976 ac3d 8288 cb3d 1878 f9bc 8f3f ccbd
00000340: 00ee 933d 9206 663d a90d a33d dc32 adbd
00000350: 0635 6d3d 367b 873d 9e36 f9bc e794 90bb
00000360: e185 7dba fbb8 b23d 2e8e d43c 2081 d13d
00000370: de1b c93d df52 603d 2c2a 183d 6af5 e63c
00000380: 0709 42bd accf 253d 180f 76bb 9154 9a3d
00000390: 00ba d1bd 4b9b 9b3c daa0 c9bc cc61 57bd
000003a0: 985b c53c 4889 ad3c de2a 5f3d e2a6 c43b
000003b0: 4b43 6fbd 1a14 e0bc c955 a03c 7fb1 6cbd
000003c0: 68ac 453d 5110 623d 0778 d03d 4516 dbbd
000003d0: 7e3a 9bbc 456e 32bd 51ce bdbd b2e4 94bd
000003e0: 7389 90bd dbb0 6d3d ee5b 7d3d 2710 87bd
000003f0: 57cf 973d 8ef8 ba3d 14b6 18bd 2df4 d33d
0.04519895 0.0121272225 0.0930056 -0.07579297 0.02442725 0.027831234 0.016427618 -0.1489132
0.0011561558 0.049527433 0.02046067 0.007918704 0.021150867 0.043628424 -0.054206274 0.093864486
0.17614812 -0.09573805 -0.13414523 -0.051108215 -0.08320735 0.060988646 0.17548198 -0.032589268
0.041924722 -0.2672976 -0.044008516 -0.19803461 -0.06515059 -0.08875618 -0.08088821 0.12304987
0.022895528 -0.0025523005 -0.111673646 0.26667127 0.19357401 0.012704033 -0.13862085 -0.11676759
0.1257203 -0.03569788 -0.12959762 0.0050997618 0.09835834 0.03718176 0.0468741 -0.081400834
0.014791277 0.07486793 0.12761357 -0.10699887 -0.062243585 0.13334985 -0.028515141 -0.021095173
0.058546662 -0.11723141 0.2212799 -0.12368745 -0.0375061 -0.010727918 0.1017796 -0.04802782
0.08650072 -0.050061923 -0.0009917885 -0.12847814 -0.060219876 0.012752634 -0.004851559 0.118475415
-0.15412822 0.0027856731 0.059537154 -0.10016993 -0.033841144 0.022656398 0.0059756446 -0.029976655
0.07650325 -0.057702687 -0.08502377 0.03010078 -0.16263288 -0.08100728 -0.09640451 0.025951883
0.17085393 0.03879641 -0.0729004 -0.10460003 -0.123078674 0.07778831 -0.020410197 -0.061359134
-0.11226261 0.0008949339 0.0009960663 -0.06218854 0.002808975 0.013466163 0.024789177 -0.078033365
0.02368297 0.031138524 0.2221834 0.037507996 -0.13409373 0.035364427 -0.030785182 0.12950881
0.018961187 0.0585636 0.0014584651 0.00040296468 0.0759421 0.09255812 -0.10354078 0.13450737
-0.01623186 0.15380841 0.11424109 -0.03131639 0.020683624 0.025288839 -0.007804714 -0.026112102
0.059801094 0.08006609 0.07861337 0.1466885 0.0032176024 0.13876745 0.11245849 0.097577915
0.0040582824 0.18387637 0.16026267 0.046850476 0.06234718 0.05661733 0.054420784 0.19647627
-0.09962275 0.10835071 0.09363417 0.120302364 0.06164173 -0.030726237 0.15410665 0.06607689
0.10326778 -0.015074898 0.14328128 0.11192292 0.012947908 0.041147444 -0.016567724 0.17899136
0.2136017 0.020500213 0.22708316 0.064855985 0.09177012 0.13644008 0.007643242 0.033566296
0.051110372 0.043028723 0.08945105 0.10899826 0.12918824 0.11228209 0.13560283 0.33471757
0.022023264 0.058382284 -0.03737281 0.10977599 0.050940305 0.06004733 -0.02490855 0.08496297
0.13490655 0.021754622 -0.00923899 0.1079775 0.06708925 -0.017663801 0.027437555 0.013443381
-0.0026465834 0.118104525 -0.024213884 0.044335324 0.08043372 0.041806795 0.019900013 0.1558705
-0.098045014 0.035401292 0.05112339 -0.08523719 0.08421082 0.09938146 -0.030452773 -0.0997306
0.07223129 0.05615861 0.0796159 -0.08456966 0.057911895 0.066152975 -0.030421551 -0.004412282
-0.00096711336 0.087266885 0.025946703 0.10229707 0.09819768 0.054766532 0.037149593 0.028193194
-0.04737189 0.040481254 -0.0037545618 0.07535661 -0.10240555 0.018994948 -0.024612833 -0.0525835
0.024091527 0.021183625 0.05448424 0.0060013393 -0.058413785 -0.027353335 0.019572156 -0.05778646
0.048260123 0.05519134 0.101791434 -0.10697607 -0.01894879 -0.043562192 -0.09267867 -0.07270183
-0.07057466 0.05802999 0.06185525 -0.06594878 0.07412594 0.09129439 -0.03728302 0.10349307

lstm.bias_hh_l0 f4 [400]
00000000: 0bb5 0c3d 9a8b 913b 89bc d73a fdc8 31bd
00000010: 4fd7 0cbd c838 dbbd 03b1 e1bc 18ff 1ebe
00000020: 1af3 7ebd d4e4 3f3d 49ca 223d ca1d fc3b
00000030: 6c7b babc c470 7cbc ac08 2f3d 7441 a63c
00000040: 28e7 5d3e 7069 613d e9eb bbbd 3c89 2dbe
00000050: 396a 2f3c fa59 f63d 2be4 cd3d e71d b3bd
00000060: 8b0d 9ebd 3021 2cbe f3a2 8fbb 0805 2abe
00000070: 3062 74bc 5522 dc3c 60e6 863d 14e4 af3d
00000080: be03 adbd 3499 703d 8db7 943c aeb6 2e3e
00000090: 8a57 973d e6f6 9f3d 70a0 0d3c 1fe4 153c
000000a0: 4bc5 1d3e 2068 9fbd cb93 7b3a 4862 66bd
000000b0: 1d3e 423e 452c 423d 32ef 97bd 17b7 bcbd
000000c0: 2fd4 d4bd a236 ae3b b019 693e e7d2 843b
000000d0: 042c 12be d7e5 393e ef5c 02be f07b 0dbe
000000e0: cf9e 6f3c 1f63 d4bd eb4a c33d 7d5b 66bd
000000f0: b544 16bd 0e32 f13d 398f 0f39 cd76 49bd
00000100: e8a1 123d 32c0 b23d 8421 a03d ca31 823c
00000110: ff59 753d cddd 153e 4141 cebd eafd e23d
00000120: 5440 afbd bcec 9b3d 2137 a83d 1079 2bbb
00000130: 4682 5dbb a7c0 aa3d 18ad 71bd 25a6 803d
00000140: d690 503d 5807 8dbd 434d adbc 2b5c 0dbd
00000150: 2dbc bcbd 6965 18be 6c39 943d 1307 a63a
00000160: f061 bf3d 016d 71bd 5719 52bd d188 7c3d
00000170: dcdf c53c e2da abb9 babc 54be bb66 af3d
00000180: c12b 41bd 317b 653d a2d1 0c3d 37cd 00be
00000190: bc51 923d 064b d03c 6837 873d 8d7a 19bb
000001a0: 1b72 c93d 7aed 1e3e 8438 883e a566 cc3c
000001b0: 2cd7 85bd 2ab7 f33c b529 86bc e2f8 fb3d
000001c0: 0dd0 9abd c70b 33bd b367 0b3e 106c e83d
000001d0: 6761 093e 185e 863c 610b 29bd 92fc a63d
000001e0: b4da d13d d133 983d 7281 023d bf71 2f3b
000001f0: deb9 063d db59 cfbd 36ea a73c 39a3 023d
00000200: 5f19 773d 193a c03d 9358 f23c 2b43 2b3e
00000210: 108d 62bc da07 59bd a802 04bd d25b f63c
00000220: 0ba4 66bc 85ed bdbb 8ea0 873d ac66 fd3d
00000230: 8553 bc3d e246 bb3d 7df5 cbbc b17f f33d
00000240: 2a70 8abd d361 2a3d 4abe acbd 9f43 f73d
00000250: b7c2 dc3d 3440 cb3c dafa f43d d0ff e53d
00000260: 7741 ce3c 2bd2 173d 0965 b03d 3b92 1d3d
00000270: f48d 52bd f858 993d af13 323e 5871 483e
00000280: ec7c 4a3e 65b7 e63d f1d8 543d dbbb bc3d
00000290: c79d de3d bc28 313e cee7 ba3c 9561 ef3d
000002a0: a67a 1b3e e9cb f53d 92e9 e33c 53ea e33d
000002b0: 63c9 f4bb c5c1 1d3e 5903 773d 337c 843e
000002c0: 969a 123d 0d3e e03d fc47 9c3c 8c62 48bc
000002d0: f492 363d f97e 9ebd 5d94 e13d e81a a9bb
000002e0: a196 0a3d 8227 b43c 6914 bb3c 65df d83c
000002f0: ba7e 093c ed0b c5bc 939c 233e aa92 293e
00000300: ab85 b33c 8dd4 063d 4d80 91bd f390 3e3d
00000310: a012 d43d 5a9f 153d 1a3b 933c 5330 b33d
00000320: ec39 703d abe9 c3bc 5b1f d9bd c219 aebd
00000330: 9311 b3bd ae27 5a3c cd88 733d 5f28 3f3d
00000340: e7ee cebc 1f7d 673d 86a5 d53d 82d8 abbd
00000350: 98e0 2a3c 6aa1 8fbd fa30 76bd ba58 a2bc
00000360: 60c7 eebc 7094 abbd 9e8f 4dbd 3b56 9fbc
00000370: 7895 6ebc f2c1 0f3d 1b0f 963c 2369 ba3d
00000380: c342 953d fffd 4dbd 6f68 12bc fcec 2ebd
00000390: 6e8c 4e3b 5440 27bd 41ea 653d 62e6 86bd
000003a0: 1818 aa3d 1c69 8ebd c5ce 62bd 7c09 113d
000003b0: 67d3 b8bc b0b5 c03d ff91 a7bd ca27 2d3c
000003c0: fc84 d53d feb4 093d 69df f63d 9566 ba3d
000003d0: e8ef 9bbd 5663 d3bc 595f c53c 89b8 f3bc
000003e0: b852 3fbd 23ed 033d 54b6 1fbd fa01 a1bd
000003f0: f514 103d 8db2 51bc c2fe ed3a 3ebc c0bc
0.034352344 0.0044416906 0.0016459386 -0.043404568 -0.03438502 -0.107041895 -0.027550226 -0.15526998
-0.06224356 0.046849087 0.039743695 0.007693981 -0.02276393 -0.015407745 0.04273288 0.020294882
0.2167021 0.055032194 -0.09175856 -0.16946882 0.010706478 0.120288804 0.10053285 -0.08745938
-0.07717427 -0.16809535 -0.0043834387 -0.16603482 -0.014915988 0.02687184 0.06586909 0.08588424
-0.084479794 0.058739856 0.01815393 0.17061874 0.073897436 0.07810764 0.008644208 0.009148627
0.15407293 -0.07783532 0.0009596913 -0.056246072 0.18969007 0.0474055 -0.0741867 -0.09214609
-0.10392033 0.0053165713 0.22763705 0.004053462 -0.14274603 0.18154083 -0.12730764 -0.1381681
0.014625265 -0.10370468 0.09535774 -0.056239594 -0.036686618 0.11777125 0.00013690897 -0.049185563
0.035798937 0.087280646 0.078188926 0.015892882 0.05990028 0.14635392 -0.1007104 0.110835865
-0.085571915 0.07613513 0.0821364 -0.0026164688 -0.0033799573 0.08337527 -0.059002966 0.062816896
0.050919376 -0.06886166 -0.021155005 -0.034511726 -0.09215579 -0.14882435 0.07237515 0.0012666903
0.09344852 -0.058941845 -0.051293697 0.061653916 0.024154596 -0.00032778742 -0.20775118 0.08564516
-0.047160868 0.056025688 0.03437961 -0.12578283 0.07144496 0.025426399 0.06602365 -0.0023418993
0.09836217 0.15520278 0.26605618 0.024951288 -0.065351814 0.029750425 -0.01637731 0.1230333
-0.07559214 -0.043712404 0.13613777 0.11348736 0.13416062 0.01640229 -0.041270617 0.08153643
0.102467924 0.07431758 0.03186173 0.0026770679 0.0328921 -0.101245604 0.020497423 0.031893943
0.06032693 0.09386081 0.029583251 0.16724841 -0.013827577 -0.052986003 -0.032229096 0.03007308
-0.014077197 -0.005796137 0.0662242 0.12373099 0.091956176 0.09144379 -0.024897331 0.118895896
-0.06759675 0.0415972 -0.08434732 0.120734446 0.107793264 0.024810888 0.11961909 0.11230433
0.0251777 0.037065666 0.08613021 0.038469534 -0.05140491 0.074876726 0.17390321 0.19574487
0.19774216 0.112654485 0.051964704 0.09215518 0.108699374 0.17300695 0.022815611 0.11688534
0.15183505 0.120017834 0.027821336 0.11128678 -0.007470296 0.15405948 0.060305927 0.25876006
0.035791956 0.10949335 0.019077294 -0.012230527 0.04457374 -0.07739062 0.11014626 -0.005160678
0.033835057 0.021991495 0.02283688 0.02647371 0.00839203 -0.024053538 0.15977697 0.16559854
0.021914324 0.032917548 -0.071045496 0.046524953 0.10355115 0.036528923 0.017972518 0.087494515
0.05864899 -0.023915133 -0.10601684 -0.08501007 -0.087435864 0.013315124 0.059456635 0.04666936
-0.025260402 0.05651581 0.10431962 -0.08390905 0.010429524 -0.07013209 -0.0601053 -0.019817699
-0.029147804 -0.083779216 -0.050185792 -0.019450298 -0.014562003 0.03509707 0.01831775 0.091020845
0.072881244 -0.050291058 -0.008936032 -0.042706475 0.0031516808 -0.040832832 0.056131605 -0.06586911
0.08305377 -0.06953642 -0.055372972 0.035409436 -0.022561742 0.09409654 -0.081821434 0.0105685685
0.104257554 0.033619873 0.12054331 0.09101597 -0.07614118 -0.025804203 0.024093317 -0.02975108
-0.046709746 0.032208573 -0.03899224 -0.07861705 0.035176236 -0.0127989175 0.0018157589 -0.02352726

fc1.weight f4 [1, 100]
00000000: 60b4 ee3d 3c3e 94bf 1071 94bd b369 66be
00000010: ccab 303e e0f5 033e c0a8 b7be 86b3 9a3e
00000020: ac3a 17be c6a4 5f3e cbd2 adbd f73f 3bbc
00000030: ab5d a8bd c54a afbd 2f8c 75be 0189 cfbe
00000040: ed33 613f 5bd6 0d3f 8989 833e 0e63 50bd
00000050: 44c4 86bd b5cd 623e cbe2 e53e 29ea 003f
00000060: 92a1 903e 6048 b73e a480 023f 994f da3e
00000070: 90f7 803e 3929 cdbd 7869 bebd b66a 1abf
00000080: de28 613e 4b03 d43e d5d7 cfbd b4e0 15bf
00000090: c6b3 16bf c986 5bbf 9f08 2a3f 59e8 2abe
000000a0: 2fd9 4cbd 5204 513e a023 c73d 22ad 993a
000000b0: 8ce7 a53f 48ed a33e 5d3c cebd 4302 e2be
000000c0: 908a f4bc 4f01 973d 0f23 98bf c0a0 92bd
000000d0: 87ff 163e 72d4 4abe f1be c03d e2dd bfbe
000000e0: 846e 753e ec75 2c3e db1d 6d3f b3de 99bd
000000f0: b811 453e b393 513e a78f cc3e 06eb c2bd
00000100: 7b6c 6bbe 1ce0 04be c3a2 b5be 779f 423e
00000110: 6d8e b13e 7759 0abf 0ffd 1abe 5364 21bf
00000120: aa20 a63d e8ec 953c 65fa 7a3e 7501 6abe
00000130: 6915 0b3e 7fe4 87be 061f 2ebe 89ef b0be
00000140: 32da fbbe 2f21 f33b 54b4 573e d19f eabe
00000150: 9054 25bd 1463 5b3e c1b6 02bf dec4 a03d
00000160: 3393 ffbe d16e b73e 4dae 0ebf 0270 8cbd
00000170: 1769 95bd 30bc 0f3f 2aa1 d03d 2dad 06bf
00000180: e2d4 9abe 1d8f d4be a675 e73e d891 b03e
0.116554976 -1.1581492 -0.072481275 -0.22501259 0.17253035 0.12886763 -0.35870934 0.3021509
-0.14768475 0.218402 -0.08487471 -0.011428825 -0.08220991 -0.08559183 -0.23979257 -0.40534213
0.8796986 0.55405205 0.25690868 -0.050875716 -0.065804034 0.22148784 0.44899592 0.503573
0.28248268 0.35797405 0.5097754 0.42638853 0.25188875 -0.10017628 -0.0929746 -0.6031908
0.21988246 0.41408762 -0.101485886 -0.58545995 -0.5886806 -0.8575254 0.66419405 -0.16690196
-0.05001181 0.20411804 0.09723592 0.0011724571 1.2961287 0.3201697 -0.10070107 -0.4414235
-0.029851228 0.073732965 -1.1885699 -0.07159567 0.14745913 -0.19807604 0.09411419 -0.3747397
0.2396794 0.16841859 0.9262368 -0.0751318 0.1924504 0.20466499 0.39953348 -0.095174834
-0.22990601 -0.12976116 -0.3547574 0.19006144 0.34678975 -0.5404276 -0.15135597 -0.6304371
0.08111699 0.018301442 0.2450958 -0.22852118 0.13582386 -0.26541516 -0.17004022 -0.3455775
-0.49189907 0.0074197273 0.21064883 -0.45825055 -0.04036385 0.21424514 -0.5106011 0.078500494
-0.49916992 0.35826734 -0.5573471 -0.06857301 -0.07295435 0.56146526 0.101869896 -0.52607995
-0.30240542 -0.41515437 0.45206946 0.3448627
